Image feature/weights/normal_top/model_W_1.npy (npy, 65664 bytes, 1 tensors)

array f8 [128, 64]
000000 02 3f 13 d1 c5 dc a7 bf ad 1d b5 a9 c6 18 aa bf
       -0.04660623719393976 -0.05097027608513414
000010 e1 c6 6e 74 cc f6 b7 bf c0 07 8b 98 bd 86 b3 bf
       -0.09360959856601482 -0.07627472852894268
000020 55 f8 72 a6 de 0c a0 bf ce 30 2e 80 9f 7a a6 bf
       -0.031348188227170816 -0.04390428962423841
000030 52 46 78 bd a2 da 99 3f b6 66 d9 62 b0 47 90 3f
       0.025248091520614864 0.015898471864011575
000040 9d d2 a7 53 18 66 a4 3f eb 65 e7 eb 17 61 4d bf
       0.03984142323671345 -0.0008965842060277262
000050 d9 a0 43 02 07 5b af bf ec dc 35 90 8a ba 97 bf
       -0.0612413587821849 -0.023172535945801195
000060 36 ad ee d2 46 61 8c 3f 1e 37 a2 23 8c c8 a5 3f
       0.013857415496963382 0.04254568037968752
000070 01 72 93 72 67 15 b2 3f 0c 67 9f 48 39 4e b7 bf
       0.07063910052551849 -0.0910373499204093
000080 8c 3e 60 04 75 97 c3 3f f4 62 35 ee 6d fb 60 3f
       0.153059603821465 0.0020730158882254993
000090 9a 0e 80 00 db bb 99 3f 48 db 2a ef 6c b2 bf 3f
       0.025130674272090127 0.1238163074402624
0000a0 34 99 81 6f 1d f9 a0 bf 50 9c bb 82 03 ba b3 3f
       -0.03315059648666577 0.07705709401817384
0000b0 cf 54 47 71 74 f7 b0 bf 0a 63 6a 89 d3 e0 b4 bf
       -0.0662758614119696 -0.08155557732460408
0000c0 35 dc d6 9a f8 90 83 bf f4 b8 b4 ec e4 bc b0 bf
       -0.009553854203529702 -0.06538229731515682
0000d0 2f 3f dd 0a 1a 7a b2 3f e2 d3 28 99 95 21 a3 3f
       0.0721756245159184 0.03736560339567753
0000e0 b6 46 fd 95 f9 4f be 3f 7c 6e 60 88 76 8b 90 bf
       0.11840782081460585 -0.016157009195110636
0000f0 94 f4 8e b3 9c 72 a3 3f 5a 37 6e 5f 1a 60 92 bf
       0.03798379604220617 -0.017944728922479093
000100 91 b6 76 5e 54 eb a7 bf 0f 11 65 6a 36 06 ad 3f
       -0.04671729710694906 0.056688023078580334
000110 3f 00 32 91 db 15 9c 3f f3 06 74 da ac fc 87 3f
       0.027427130448359312 0.01171240846315722
000120 e5 70 39 f9 cb 7b a1 bf 3c 61 7b 5a 98 98 c2 bf
       -0.03414761941232473 -0.14528183382095416
000130 b4 f3 71 17 ac cd c2 bf 79 3c a7 ab 45 0d c9 3f
       -0.14690161843091476 0.19571753388888505
000140 b3 7d f5 b0 22 9b b2 3f f9 87 ed cd bf 6d 86 bf
       0.07267968006407592 -0.010951517555159983
000150 03 0e e9 29 0d f5 a5 bf ac 65 95 77 f3 f7 a5 3f
       -0.04288521896935651 0.04290734133492022
000160 72 56 25 3d 6e 12 ac 3f 62 fc 9c 0f aa 89 bf bf
       0.05482811447533899 -0.12319434052641179
000170 04 17 9b 33 71 39 b3 bf f5 e2 c5 15 bf 8c b1 3f
       -0.07509524831683839 0.06855387002532239
000180 86 9f c0 a7 68 8d bb bf ee 00 46 73 51 35 c1 bf
       -0.10762647719877635 -0.13443964127146252
000190 8e 48 23 b1 80 9d 83 3f c1 c4 62 03 dd df 77 bf
       0.00957775631505722 -0.005828727085984643
0001a0 c1 59 e1 75 d8 cc 63 bf 09 b3 b7 3c f4 3c a5 bf
       -0.0024170139068175616 -0.0414806675069937
0001b0 a2 6b ec f6 af 29 84 3f 9c 60 72 f3 3f b6 6d bf
       0.009845137331969959 -0.0036269425432458712
0001c0 8e 15 7b 21 27 55 8d 3f 50 13 cb 81 56 7a bf bf
       0.0143225724308518 -0.12296047848492475
0001d0 25 f2 73 93 a0 de c6 3f 52 33 06 25 2f 4f 75 3f
       0.17866904449319168 0.005202469023413441
0001e0 19 c6 b5 69 a0 40 ca bf b2 52 d0 24 9f aa ab 3f
       -0.20509724771140794 0.054036114925258075
0001f0 39 03 04 ef ba ce b3 bf 92 71 83 e6 80 b6 90 bf
       -0.07737320266097648 -0.016321195668625395
000200 83 99 10 c4 35 ce 94 3f d0 bd ce 6a e6 d4 b4 3f
       0.020317878810737888 0.08137359721762683
000210 2e 05 da 32 17 81 b1 bf b6 07 6c 40 6d a7 b7 3f
       -0.06837601653571276 0.09239847967913203
000220 12 e0 ee 95 d2 18 c3 3f 1f 87 a9 c8 92 89 bd 3f
       0.14919502564384907 0.11538045310001309
000230 f0 d9 f4 fe d7 4b a9 bf cf a7 3a c7 34 b9 ca 3f
       -0.04940676676999434 0.20877704360947155
000240 38 1e 6b e4 cd 0f ac 3f 7a 22 cb 0b 7f dc 81 bf
       0.05480807698546325 -0.008721344516190433
000250 ff df 6e 64 f8 dc 6e bf bc b1 8d 97 57 54 a5 bf
       -0.003767476216548715 -0.04165910458582142
000260 18 93 a1 1c a5 1b a0 bf 2c 0c 75 bb 29 4a b2 3f
       -0.031460914368642345 0.07144413782684528
000270 fb 19 2e 08 de 61 b3 3f 1f 8e 4a 70 f2 f1 c3 3f
       0.07571208667477684 0.15582113726587551
000280 f5 eb 6f 3d 35 c6 c3 bf 3b 3d 8d a3 8e 6a 9a bf
       -0.15448632717001912 -0.025797108395008577
000290 81 e8 a9 37 a7 a2 b7 3f 09 90 ec ad 3c a6 b8 bf
       0.09232564076401852 -0.09628657575791534
0002a0 5d ad a3 76 bb 10 cb 3f 9a d9 d3 d8 04 f2 73 bf
       0.211448128632905 -0.004869479115987474
0002b0 fb 86 63 89 05 9e a1 3f ca b3 c9 36 9e 2b c2 bf
       0.03440873434170829 -0.1419561164397279
0002c0 03 07 f8 7c 03 36 ba bf 51 35 b9 e9 31 e2 9f 3f
       -0.10238668251988874 0.031136302843426226
0002d0 fc e2 4c 44 de cd ab bf 2a 29 23 1e 4f dc a3 3f
       -0.054305024945682207 0.03879019968879256
0002e0 fd d0 12 e2 6c cf 99 3f 2b 3b 45 3c 17 fb a4 3f
       0.025205327318603022 0.04097817049716065
0002f0 69 e4 d7 14 41 1c bd 3f ff 71 7d 3b 7f 42 ac bf
       0.11371237524862611 -0.05519483185955564
000300 9f f6 10 0c cf 07 7a 3f b8 57 25 67 03 97 c6 3f
       0.006355103280893864 0.17648355995578213
000310 c1 23 3b fb 1b 4e c0 bf 76 f2 a6 33 fb c4 9b 3f
       -0.1273837067331254 0.02711861136207224
000320 f7 a2 d5 b2 86 28 bc 3f 63 27 45 47 d9 87 8d 3f
       0.10999338022305581 0.014419267165653065
000330 c8 f8 3c b7 1c 9e b4 bf 53 ce 6f 4a 44 59 ab bf
       -0.08053760026539003 -0.05341542633678089
000340 7e 24 25 fa b6 9a bc bf a2 3c d7 5e b4 8d c2 bf
       -0.11173575980241598 -0.1449494803514187
000350 4a 5b 30 da 04 26 ab 3f a1 51 d7 fb 76 20 a7 3f
       0.053024436602007244 0.04516956161720321
000360 53 68 61 8f cb 3e a2 3f 11 3c 5f 0b a0 1e bb 3f
       0.035635339024069033 0.10593605306279154
000370 01 84 77 b6 f8 94 8e bf 68 22 cc 68 40 6b 74 3f
       -0.014932578152128785 0.004985095595437451
000380 a3 f6 eb e4 d2 dc a6 3f 23 39 89 2c 2e e3 c2 3f
       0.044653501934573535 0.1475579946003985
000390 73 31 26 38 5e 73 b4 3f 2a 41 a4 fb ad bd b3 3f
       0.07988537665204891 0.07711303132623884
0003a0 30 2c 19 5d 59 01 cd bf 6d 0b 4a d8 78 14 a1 3f
       -0.22660367055718345 0.03335931434869264
0003b0 c1 14 15 81 f1 bd c6 bf 35 78 c7 30 55 17 ac 3f
       -0.17767161181305904 0.054865514950265405
0003c0 ee 26 de bf d3 4c a3 3f 0b bd 7e 0a 57 24 c0 3f
       0.03769551961074834 0.1261090089078397
0003d0 d8 19 26 89 75 56 a2 3f 73 40 03 cc e5 60 c0 3f
       0.03581588076763226 0.12795708142812465
0003e0 57 9c 05 d0 ab af 94 3f 5e c9 1e 00 39 a2 b2 3f
       0.02020138222851772 0.07278782132087744
0003f0 c8 9e e3 f6 d2 5d b4 bf 71 eb bc 0e a6 98 af bf
       -0.07955664184157307 -0.06171149186999159
000400 37 be 0a cb 91 75 9e 3f a0 36 53 4b 68 86 c7 3f
       0.02974536706704908 0.18378928831082408
000410 db 87 a1 79 89 40 c8 bf ab 5b 5e b2 08 86 89 3f
       -0.18946951331150683 0.012462680762650743
000420 99 d1 07 eb 7d b4 a5 3f 01 e0 d3 09 e3 45 a7 bf
       0.04239266866707964 -0.045455069493925755
000430 87 6c ed be 7f fe 94 3f ce 8b 09 79 bc 1e c4 3f
       0.020502086666379895 0.1571879950525656
000440 a8 b5 77 75 30 99 9c bf d4 6f 89 65 4e e0 b1 bf
       -0.027928120774893067 -0.06982889155318556
000450 39 85 7c 70 3b d2 b0 3f a7 d2 52 18 2e 5a d0 bf
       0.06570788856744948 -0.2555041539701883
000460 00 6f 3c 8b fc 83 60 3f de 01 c2 3f 3d f7 c7 3f
       0.00201606106737795 0.1872326432530959
000470 54 cb cd b1 1a 8f c5 3f 9e bf bd 89 36 16 a8 bf
       0.16842969590978873 -0.047044472040283156
000480 15 22 64 08 4e 96 b3 3f 4e fd 43 e3 95 ef b9 bf
       0.07651221947538318 -0.1013120345924012
000490 4e d7 3d a9 2f bf b3 3f 24 6d a1 d8 90 88 aa bf
       0.07713601953386481 -0.05182316440979154
0004a0 12 4d 03 cb 18 f6 97 bf 1d cb 18 51 59 d7 c1 bf
       -0.02339972247211814 -0.13938442668730824
0004b0 a3 45 92 d1 ae ae b1 bf 5a ea df fe dd fd b3 3f
       -0.06907169929970407 0.07809245560194125
0004c0 b8 61 61 3a ff af a8 bf 80 4c 95 b7 7a 23 b6 3f
       -0.048217750431550355 0.08647887212764438
0004d0 2b bc f3 92 5d bb b7 3f 54 b9 12 bc 90 6d cd bf
       0.0927027210016013 -0.22990616973170097
0004e0 38 e7 af a1 43 56 bc bf 7e bb 4e 51 8d 9f b6 3f
       -0.1106912870162916 0.08837207064673966
0004f0 ba 7f c0 38 26 e1 95 3f ba bf c1 8d f3 6e 9b bf
       0.021366688932289192 -0.02679043343272245
000500 44 b6 16 63 7c de ce 3f 31 21 95 02 96 e7 b6 3f
       0.24116473043743458 0.08947122157144773
000510 69 84 42 bf 84 4c a8 bf 29 76 fb 40 ef 99 91 3f
       -0.04745879015650518 0.017188776341631993
000520 b3 f5 0d 83 65 20 a7 bf 5a 40 1b a5 9c 35 c9 3f
       -0.04516904091631648 0.1969486051734773
000530 b7 26 01 f4 d0 da b2 bf 09 5d 89 a4 88 f3 bc 3f
       -0.07365137059346237 0.11309103028303381
000540 9a b9 e7 85 2b 28 b0 bf df 8e e7 52 e2 95 b9 bf
       -0.06311294573945361 -0.09994329952274537
000550 dc 70 6a 4f 7f 91 a9 3f 0c d4 89 ce 26 1f bc 3f
       0.04993818134718861 0.10985033552590567
000560 f5 c4 de 8a a1 cc 90 bf 99 7c a7 6e fa 22 ab bf
       -0.016405605412448804 -0.05300123787650896
000570 13 9e a7 6f 41 74 68 3f 48 75 4f f0 05 fc c3 bf
       0.002985122494681533 -0.1561286376371902
000580 8c f6 88 4f e1 e7 a6 3f 29 b1 a9 bf d5 8f a0 bf
       0.04473785491835 -0.0323473736251308
000590 de 58 ab d0 c4 f0 b6 bf 76 0c 9d 50 51 db a1 3f
       -0.08961134046998917 0.03487638577510037
0005a0 a9 62 28 20 39 ad a7 3f 90 65 00 ad a2 ee be 3f
       0.0462434627299378 0.12082878802939079
0005b0 4e d9 f2 ee fa a0 a0 bf 00 90 67 a1 45 30 b5 bf
       -0.03247818152287839 -0.08276782217541268
0005c0 2b 6f ca 1c b6 da 98 bf 48 fc 64 be f3 2c b5 bf
       -0.024271817691086255 -0.08271716497709847
0005d0 a7 27 2d b9 51 9d 97 bf cb c3 2e d8 2c 69 a6 bf
       -0.02306106274344413 -0.043771172894942
0005e0 8a 5b 14 d8 ee e8 b4 3f 5f f4 3b a1 70 3f c0 3f
       0.08167927527789068 0.12693603394282868
0005f0 27 d6 51 c6 8e 5d c0 bf 30 e9 7c 74 b6 47 be bf
       -0.12785515483453588 -0.11828174919074708
000600 2b 56 b9 d5 27 ec b5 3f 06 97 69 ba 92 7c af bf
       0.08563469856138599 -0.06149729276221021
000610 87 e4 60 9b 79 33 c2 bf c8 2e 23 8a ef 30 83 bf
       -0.14219589316215694 -0.009370681193466082
000620 ad 74 61 a3 11 fd a5 3f 3c 5f 98 7a 85 8b 8b bf
       0.04294638747590205 -0.013449709705170336
000630 6c 20 86 5b ea 35 a1 bf a6 2d e1 b8 5f 52 ab bf
       -0.033614467308382995 -0.05336283809500779
000640 8f 3c 32 18 ac 3e 76 bf a7 1c 9f d9 1a 95 b0 3f
       -0.005430862659650106 0.06477515996003778
000650 c5 ac 86 1c 9e 71 ad 3f a3 85 2d d8 d8 d1 c4 bf
       0.05750745866984056 -0.1626540237003101
000660 b2 93 57 5b 16 f2 a2 3f 34 26 dd 8d f8 0e 99 bf
       0.037003229761274695 -0.024471172007258526
000670 2b 85 1d f5 13 0f a4 3f 56 aa 17 8d 4f 5d b1 bf
       0.03917753569727219 -0.06783005900039404
000680 0d 21 40 dd c3 2f 70 bf a0 0a c3 0f e4 b4 cd 3f
       -0.003951802344097877 0.23208285112021532
000690 4f 16 09 06 a3 91 b9 3f c6 a2 ae 07 a1 99 cf 3f
       0.09987849137640946 0.24687588572603242
0006a0 cc 96 a2 9b 86 b3 a9 bf e3 10 36 e8 ba d9 b7 3f
       -0.050197798250605524 0.09316604775637276
0006b0 05 01 28 cb d5 38 c2 3f 01 1c e7 3f 99 dc c6 3f
       0.14235947055568246 0.1786071359658479
0006c0 9d 93 1c 21 10 e7 b5 3f 24 ce a6 5a 94 d0 b4 3f
       0.08555699165715543 0.08130767071889317
0006d0 cd 77 e7 87 b7 b7 c5 3f 14 11 1a 35 06 e5 b9 3f
       0.16966909538217437 0.1011508826869128
0006e0 67 b8 a7 af 9c 36 94 bf 5b f5 6c 15 ad 89 94 bf
       -0.019739578457965836 -0.020056442673412316
0006f0 42 ff 94 38 88 10 c0 bf c1 9c 7a a5 b1 e3 b4 3f
       -0.12550452006143514 0.0815993336678842
000700 a1 7a 9c 87 be a7 b5 bf b8 53 35 2d 38 fc c0 bf
       -0.08459082423039856 -0.13269712645947407
000710 0d 09 c8 2a b7 4e 85 bf cf 5e 01 2e 28 67 bd 3f
       -0.010404044144710878 0.11485530017068445
000720 68 f4 3d 01 91 d3 c2 bf 28 cd d9 bd 69 70 c5 bf
       -0.14708149490971612 -0.16749307413156456
000730 e4 27 a4 52 90 f6 83 3f b6 cc 9b 4f ad 45 ca 3f
       0.009747626802454286 0.2052513731683569
000740 c3 75 24 1d f7 4e a5 3f 5d c1 89 dd fb 82 3e bf
       0.041618082339691685 -0.0004655709176750922
000750 e5 43 f5 c3 37 ec b9 bf fc 09 9b b6 1c 77 c3 bf
       -0.10126064809925557 -0.152072514689351
000760 d3 be 3a ec 74 b7 b7 bf a7 83 99 04 74 17 bc bf
       -0.09264307753869198 -0.10973286735817443
000770 11 87 c4 6a 01 dd c1 3f e3 60 8f e1 d9 53 90 bf
       0.13955705369249263 -0.015944866554350134
000780 81 c9 8a 20 5a f4 85 3f 4c 5b c9 df 18 f7 c3 bf
       0.010719970815760817 -0.15597830702855686
000790 70 09 44 12 f0 9e b8 3f d8 31 e7 d5 79 f5 b2 bf
       0.09617519803945185 -0.07405816528552778
0007a0 d4 8a 57 1c 8e ba ad 3f 0b 7c 3b 02 ca 5e 87 bf
       0.05806392761203019 -0.011411264603735224
0007b0 25 e9 d4 2a d3 b4 c9 3f 54 e9 f8 c8 50 3e a7 3f
       0.20083083716765163 0.0453973050429847
0007c0 67 8d b0 87 d0 9c b6 3f 6a 99 66 22 13 82 a9 bf
       0.0883303004525736 -0.049820516537965556
0007d0 d7 13 0c 40 34 7c c2 3f 3e 5e cd 21 c2 c8 c7 bf
       0.14441540839484787 -0.1858141579675578
0007e0 1f 7e 05 35 de 18 c3 bf fa 2d 3e 7e 89 ed b0 3f
       -0.1491964110273196 0.06612452823735984
0007f0 d6 68 27 48 78 13 ba 3f db 5d fa 24 15 1e 73 3f
       0.10185958634920964 0.004667360873689098
