Image feature/weights/normal_top/model_W_0.npy (npy, 143488 bytes, 1 tensors)

array f8 [140, 128]
0	0xbfa235cb6f0c8f27	-0.03556667070941293
1	0x3f8bfdd3d0454c50	0.01366773108808253
2	0xbfc2b1fcb0dd20be	-0.14605673442770767
3	0xbfba07cb4a793918	-0.10168142860604623
4	0x3f93d60f92e2ee7e	0.019371264782178425
5	0x3fbcf210d3980008	0.11306862989295052
6	0x3fbacd13414dd7ff	0.10469169945085353
7	0xbfbf7f99e38e9831	-0.12304078870383318
8	0x3f6ea692d65a917f	0.003741537849082543
9	0x3fc18dd75eebba4e	0.1371411527138257
10	0xbfa1e7d920687526	-0.034971986013469
11	0xbfc44fb6cf11bfec	-0.15868268118674622
12	0xbfb5d42232485343	-0.08526815154648397
13	0xbfaea4c7cff5dbc7	-0.059850925575055273
14	0x3fc2cd1e2ee3e12c	0.14688470162924128
15	0xbfb316bbac655be4	-0.07456562956700413
16	0x3fb7e553106d9094	0.09334296370576772
17	0xbfc4137b1522c57d	-0.15684450656912566
18	0xbfbe3efb2164c7e8	-0.11814851346278454
19	0x3f8cad0a353edbc2	0.014001922368931722
20	0xbfb79ded91b33ac6	-0.09225354010707595
21	0xbf955a73687a6aac	-0.02085285496887461
22	0x3fc2beb1f28dbf6d	0.14644455283586968
23	0xbfb253c30efcb599	-0.07159060588738554
24	0xbfa22c392965a0e4	-0.035493646910994575
25	0x3fbdfe80633d96a8	0.11716463492265439
26	0x3fc2fdd56056b9c0	0.14837138370553582
27	0x3fb6aac9783f2e6e	0.08854350267136521
28	0xbfc0668e5486f16b	-0.1281297600488743
29	0x3fc22ea5a4c70236	0.1420485548569716
30	0xbfa6ab05fb6bf7cd	-0.044273554745799616
31	0xbfc9b07b137ae0f0	-0.2006982655636942
32	0xbfc51a56ed89212c	-0.1648663196413137
33	0xbfc5cf432b5f4e28	-0.17038764589106958
34	0xbfc32c8266e4b3e5	-0.14979581855860072
35	0xbfb0d27e60086bb2	-0.06571187824776706
36	0x3fb2ee67ba0acea1	0.07395027439161563
37	0xbfb31dfb35db0525	-0.07467622818787285
38	0xbfa2a4852083e12e	-0.036411438197264764
39	0x3fb69d588e498976	0.0883384082203856
40	0x3fc146fecc2ad4f9	0.13497910470110933
41	0xbfc01cb0593126ce	-0.1258755145557217
42	0xbfc2f8f9ac040fb2	-0.14822312258922704
43	0xbfbb6c833cd2d425	-0.10712452158880177
44	0x3f9550ba3517df17	0.020815762987665822
45	0xbfbfeb16be34fa82	-0.12468092101787856
46	0xbfc3a283a11d0d84	-0.15339703909749514
47	0xbfbfa31ced7f503a	-0.1235826568438946
48	0xbfb6e0213690eb1f	-0.0893574484079349
49	0xbf887609b1da1dbf	-0.011943889370072179
50	0xbfa78c8c36f42aab	-0.0459941689569708
51	0xbfafd71392056a7a	-0.06218777806744398
52	0x3fc017c3c1b0250e	0.12572524030137128
53	0x3fb6c0ca2486e8fe	0.08887923614284785
54	0x3f98e2dde6fbcbcc	0.0243029281836689
55	0xbfb24729ac5b1ec2	-0.07139835794361729
56	0xbfc2fa808cd220c0	-0.1482697188951132
57	0x3fc23a3faf418ba1	0.1424026113264434
58	0xbfc0078ed4fbf007	-0.12523064994445596
59	0xbfaaccbac6ecdaf3	-0.05234321287428214
60	0xbfbd5910e1e417f0	-0.11464028849522356
61	0x3faa6862e41a6418	0.051577654213538604
62	0xbf9c6fce21ddf18e	-0.027770253007007244
63	0x3fc09163b32ca154	0.1294369339823428
64	0xbfb2c6be6fa241fb	-0.07334509110865632
65	0x3fc1027e6b23ab84	0.13288860541737446
66	0xbfc909c60df3aec2	-0.19561076813930894
67	0xbf8e0a8bbfcf50fa	-0.014668552199431851
68	0x3fc9f71bdfd7f734	0.20285366468299915
69	0xbfb644f67eb420ed	-0.08698978989935187
70	0x3fb30d8fe5c2ac4f	0.07442569121728691
71	0x3f8415b8dc13b92d	0.009807056633203881
72	0xbfcedbb83c6fa82b	-0.2410803122614323
73	0xbfa9a425ff6b8c58	-0.05008047812386768
74	0x3fc0be46d73e77cb	0.13080678472482385
75	0x3fb8796b5574dd62	0.09560271107044607
76	0x3fb2900acee1d112	0.07251040983993942
77	0xbf80373c697e38d1	-0.007917854279892474
78	0x3fc5cc1ef3575751	0.17029177553075184
79	0x3fb87e2a69146fcb	0.09567513528276021
80	0x3f9bf6d4e69339f6	0.027308775494754266
81	0x3fab0415ce195caa	0.052765542419984726
82	0xbfbc900efd41da88	-0.11157315905607323
83	0xbfd2b8cdc93980d8	-0.2925295319637491
84	0xbf8b158fc0d6d0e4	-0.01322471911667162
85	0xbf7668acd3d9251a	-0.005470919711634959
86	0xbfbe75e43838ff3c	-0.11898638126967581
87	0x3fb413578a4fa3f6	0.07842013479934437
88	0xbf95e8dc7dfe546f	-0.021396107854873166
89	0x3fcf66a634da3695	0.2453201063221299
90	0x3fa987e1d9049f59	0.049864824048482866
91	0x3fc79cc604d5fd28	0.18447184787871973
92	0x3f859af16acf2053	0.010549436637930542
93	0xbfbd6b31eee1a7ff	-0.11491691667620783
94	0xbf92af42c10c9cb8	-0.018246691735069404
95	0xbfbf99de9811aa4b	-0.12344161236402688
96	0x3fb4367e61f04edc	0.07895650759774803
97	0xbfa5248f898a8f3b	-0.041294560947135094
98	0x3fbdc36589b9e67e	0.11626276600318339
99	0xbfbeeb75f7e6532a	-0.12078034689177444
100	0x3fb40f93a531c6f4	0.07836268218104775
101	0x3fc218edc0b335a2	0.14138576420957089
102	0x3fa3abcd4b396f24	0.03842011969820039
103	0xbfa896e0315b0091	-0.04802609064563613
104	0x3fc1bad15b2a1bd4	0.13851372672453854
105	0x3f92b81226a3223e	0.018280299766759926
106	0x3fb4cdce6fd0455d	0.081265356348259
107	0x3fa5f2328f4cb330	0.042863445274952006
108	0xbfc2860671c5054a	-0.14471512370259126
109	0xbf95ba9ffa2f636c	-0.021219730038726167
110	0x3f820c3689c5b741	0.008812357024648445
111	0x3f961486c0537ccf	0.02156267689576624
112	0xbfacba1610a3cd63	-0.05610722497103884
113	0x3fb1a6abffc41fe3	0.06894946092881997
114	0xbf257ec893b51d4c	-0.00016399572801104945
115	0x3f8aa367165f4a2e	0.013006978388067383
116	0x3fc776e6c45644d0	0.18331608378188102
117	0x3fb94ba35fdc098c	0.09881039705581979
118	0x3fc09d973cd8ccf9	0.12980928870238254
119	0x3fabfa727ad18906	0.05464513539551956
120	0xbfb1a667681e197d	-0.0689453725045492
121	0x3fb0e6a6d825715d	0.0660194661808808
122	0xbfb283b2683c28f2	-0.07232203526305961
123	0xbfb3d67ee6aa66cb	-0.07749169475064403
124	0xbfa38c37cf7343e3	-0.03817915351249448
125	0x3fc6b2382e04c063	0.177313826055527
126	0xbfa7be18e56ff5d0	-0.04637220192669711
127	0xbf9ad7a9b8725cce	-0.02621331394456377
128	0x3f9e73f3e7e77e7e	0.029739199666322318
129	0x3fc34e7aeb2411ff	0.1508325241230892
130	0x3fb530a92fbda027	0.08277375617547077
131	0xbf7905ef1a61f69b	-0.006109174724881729
132	0xbf84825220726ee6	-0.010014192214206696
133	0xbfabf7f4b84b6955	-0.05462612867059372
134	0x3fb61cca32615c97	0.08637679796207674
135	0x3fc05a862b121037	0.12776257613234218
136	0xbf34ff1bae6b7c71	-0.0003203814107290487
137	0x3fa628bb7178e196	0.04327951202543827
138	0xbfb537d69b026a86	-0.08288327488336664
139	0xbfc65169846043e2	-0.17435950244592308
140	0xbfa0b15dfdaae81b	-0.03260320397880908
141	0xbfc7814dda9baed8	-0.18363354849076674
142	0x3f9a4d9e931e3254	0.025686719636313818
143	0xbfbd77bb9469c859	-0.11510822652215448
144	0x3fb4a723ea938e87	0.08067535855257733
145	0x3fb844257ae04507	0.09478983163741726
146	0xbf94e6fabaa1bf21	-0.02041236652479406
147	0x3fc0f28d91e92296	0.1324021303610336
148	0xbfb6558d91e9cf2d	-0.08724293529831746
149	0xbfa63f10fb7ea603	-0.043449907970465794
150	0xbf9f0a8fab932e9c	-0.030313725325682314
151	0x3f7a26fb0da6546a	0.006384831120518001
152	0xbfb98a2af5595874	-0.09976452341047254
153	0x3fbaa51e0402f86a	0.10408198926867987
154	0x3fc233cf88421f7e	0.14220613625752415
155	0xbf8c4e253c65f2e4	-0.013820925622661524
156	0x3f93a0d828e31d25	0.019168260093264018
157	0x3fad0c2478eab508	0.05673326469455203
158	0x3fc654c5f19cf7cf	0.17446207330243488
159	0x3fbbf89a5b26906a	0.10926213002545784
160	0xbfaf36b70dc329f2	-0.060964317731833875
161	0xbfca8068bd8070d5	-0.20704373600972895
162	0xbfbf282e26fb02f9	-0.12170685245201786
163	0x3fbcef09caed4b99	0.11302243427534932
164	0x3f8f46312d2e79ab	0.01527059954770212
165	0xbf8bff79f0f5cd89	-0.013670876184483276
166	0xbfb4ab4d07d4d873	-0.08073884431073157
167	0xbf9479cc20b81c5a	-0.019995870110531257
168	0xbf94ed92f817183f	-0.020437523262238463
169	0x3faa40e578224bd8	0.05127636996726154
170	0x3fa2d35b6f4b9b10	0.03676877721391325
171	0x3fb0f8a38ea2ad10	0.06629392845450277
172	0x3fa356feda057506	0.037773098100595745
173	0xbfbb6a5e1bfe84df	-0.10709179099514497
174	0x3fb5b2f8b2ca6a0d	0.08476213803297857
175	0x3f74420ff82d5dc7	0.004945814495691043
176	0x3fb23b547a8bc34c	0.07121780387730076
177	0xbfa1be0e45fff51b	-0.0346531353425041
178	0x3fbd549cad04b2a5	0.11457232688980896
179	0xbf85e08ac60652b8	-0.010682186287149661
180	0x3fb0db1da51caf6c	0.06584344178253126
181	0x3fb1fe56bec99667	0.07028715284249075
182	0x3fb46ade359dde91	0.07975567635537063
183	0xbfb318fedf10939c	-0.07460015245358281
184	0x3f8399eaaf9445f3	0.009570916636707038
185	0x3fa1539789306c37	0.03384088086769348
186	0xbfb41639a870300b	-0.07846413004170942
187	0xbfb24d96903f729e	-0.07149640103984686
188	0x3fac429278020099	0.05519540514888028
189	0xbf8636f33724dd24	-0.010846996422158535
190	0x3f93d4ffc238ea92	0.019367214421644414
191	0x3fb9a0d63dc6bbaf	0.10011042602739793
192	0xbfadf8e841e78b24	-0.058539636654833666
193	0x3fb20c4d9e9bf1c5	0.07050023195547002
194	0x3fb6e2eb2d87e81e	0.08940000402063261
195	0xbf87b34fb3c8ee46	-0.011572477983569428
196	0xbfb718a883f60e34	-0.09022000524242274
197	0x3fa06461f5e5e8f0	0.03201585890470138
198	0x3f6cb23f1d4f6419	0.0035029633240637567
199	0x3fb4c4e145adafec	0.08112914992460646
200	0xbfc244d2e813a463	-0.14272533733245316
201	0xbf9a387448bf8ea4	-0.025605980816080134
202	0xbfa155b9550d2fa9	-0.033857146866096706
203	0x3fab8c33ffe61357	0.053804039943350083
204	0xbfb3faa715e74391	-0.07804340634107933
205	0x3fa64bccfa6edf01	0.04354706341785964
206	0xbf93a8788add0bff	-0.019197352862885705
207	0x3fa4de0929b613ad	0.04075649866266615
208	0xbf717555a3fefbe5	-0.004262289556151243
209	0x3fb527b0e6074205	0.08263688674856702
210	0x3fbf2dc522f321c8	0.12179214576020236
211	0xbfa76d68dec57a3c	-0.045756604379438376
212	0xbfb0798ef642c0d2	-0.06435483467317063
213	0xbfb3d942854be5e7	-0.07753387216862216
214	0x3fa01f6b4bb2c157	0.03148970889140184
215	0x3fb6a034dd2fc580	0.08838205719054848
216	0xbfc4adfe485f674f	-0.16155985387632163
217	0x3fa463b11e219610	0.039823088577389254
218	0xbfbde298eb9432d1	-0.11673885108411787
219	0x3fb79adfed57130a	0.09220695061146614
220	0xbf8a7dfb1ca1eb30	-0.012935602008146668
221	0xbfb73d656b4271ae	-0.09078058117524421
222	0xbf9620611c106dd0	-0.02160789235868582
223	0x3f8aa67fd23ff6b7	0.013012884715858914
224	0xbfaff40830eb6dad	-0.0624086913792
225	0x3fbacfc4eae25904	0.10473280653454614
226	0xbfb381d6a8321921	-0.07619992834415658
227	0x3fc060b84a332fc5	0.1279516565613205
228	0xbf919e8d2fdb0abf	-0.017206388517261525
229	0xbfb74f29f94380fe	-0.09105169616259798
230	0x3fb93631872252c3	0.09848317670032274
231	0xbfa85094c5366786	-0.04748978526477203
232	0xbf979f00719a003b	-0.02306748097771581
233	0xbfa3ab3169e0b0b1	-0.03841547410442681
234	0x3fb28fde09ae7d10	0.07250774132124982
235	0x3fb5cc4959594a4f	0.08514841491095491
236	0x3fb53364a2613f39	0.08281544651367491
237	0xbf9e24955a24f3ac	-0.029436429621671742
238	0x3fb7ed6be42892ca	0.09346651382709151
239	0x3fb2a2461fff6643	0.07278860360329369
240	0xbfc27f6ec5e344cb	-0.14451393759239858
241	0x3f9370c5b9598439	0.01898487991127615
242	0x3fa7c92f7b734098	0.04645679838142874
243	0x3faecedfbe41abd5	0.060172073340104916
244	0x3fc3184e23af223f	0.1491792368162965
245	0xbfb103b745cc3a09	-0.06646295026823891
246	0x3fc413e22fbba51f	0.15685679751121825
247	0x3fca8ce7ea537636	0.20742510739994352
248	0x3fc3536ff94d967a	0.15098380730630706
249	0x3fb0ed53928752ea	0.06612131430967919
250	0xbf95d697dd5b11a8	-0.02132642067478377
251	0x3fb33941077df226	0.07509237702283453
252	0xbfca1ed5b8c993da	-0.2040660049707686
253	0x3f9e3647bdc69862	0.029503937681191757
254	0x3f90dc7d50cc4b4d	0.016466100746650714
255	0x3fb2917276b6491a	0.07253184698337059
