Image feature/texture_feature/weights/model_b_1.npy (npy, 640 bytes, 1 tensors)

array f8 [1, 64]
000000 93 4f e1 56 a2 84 c5 3f 00 37 b9 ed fe 97 c2 3f
       0.16811017267411596 0.14526354415504983
000010 3d ea 9d 6b 29 f0 99 bf ab 56 03 3b e6 81 9a 3f
       -0.025330207055484378 0.0258861516493513
000020 05 8d ac d7 74 5a c7 3f 12 10 c2 df 37 89 cb 3f
       0.18244801073988284 0.2151250689095155
000030 62 3b a4 21 f5 f0 cd 3f 7e b3 d9 13 41 d7 c9 3f
       0.23391594069149863 0.20188153714425633
000040 52 45 76 38 e1 54 c0 3f 1d 66 09 7b af ea bc 3f
       0.12759032494481432 0.1129560161001781
000050 dd 92 ef 51 6a 64 c6 3f bb 3d 04 c3 fa 36 b9 3f
       0.17493943215153865 0.09849517117640165
000060 b0 29 96 e5 89 b7 c4 3f cd d5 d1 c7 dd 19 8a 3f
       0.16185115537912287 0.01274464860964999
000070 6a 64 56 50 5a 0e b7 bf e2 60 80 8c 28 0b a5 bf
       -0.09006275616992956 -0.04110075678926407
000080 d3 f7 72 85 dd 70 b3 3f cb 21 20 22 d6 f0 b7 3f
       0.07594093807253381 0.0935186227144477
000090 31 0c 0b 6c ed ea 96 bf 52 0e 74 f6 5f f4 a9 3f
       -0.02238055202429851 0.05069255717719713
0000a0 de d2 ff 2d e5 93 af 3f a6 21 84 b0 07 3f ba 3f
       0.061675226082945164 0.10252426204181705
0000b0 31 77 c3 ca bf ea b0 3f ee 9d ac d8 31 de c0 3f
       0.06608198833734204 0.13178084449576438
0000c0 9f fc ab f8 33 fc cb 3f ad 5b 2a 7d c1 9f 9f bf
       0.2186341251581085 -0.03088285757493352
0000d0 80 a9 f9 1a 93 2c 91 3f 6f 19 ce 18 41 8e c0 3f
       0.01677160122054877 0.12934125624833423
0000e0 d7 44 f8 aa d6 f9 93 3f 88 ba 2f a7 2e e1 c5 3f
       0.019507745919388277 0.1709345165576972
0000f0 e1 6d d3 92 77 20 68 3f f7 04 f9 d1 38 f7 c6 3f
       0.00294516901213425 0.17941961529326253
000100 d1 a7 bc 49 4f 99 91 bf 23 26 28 aa 80 bc c2 3f
       -0.017186392665429488 0.1463776427120119
000110 73 9d f4 bd 82 ad c4 3f 95 10 8c 2c ad a4 c5 3f
       0.16154512667820206 0.16908802676346527
000120 a4 e3 1a 28 11 61 b2 3f 36 70 4d 08 e3 c7 a5 bf
       0.07179362515570503 -0.042540640605438204
000130 91 e3 03 ed 9f 04 a2 3f 79 22 8e 5c 56 59 c0 3f
       0.0351915337395844 0.12772635955140624
000140 3b b1 82 18 47 cf b2 3f 37 80 c5 a4 60 b4 bb 3f
       0.07347530697251596 0.10822109244099996
000150 cf 80 92 d2 bd 0a b7 3f fb 40 97 49 59 9c c7 3f
       0.09000765219616656 0.1844588860826731
000160 fc 30 15 56 ae 9c c8 3f 2a 2a 20 4e c0 a2 c2 3f
       0.19228152468929938 0.14559177221993141
000170 3b 65 33 a9 4d 84 9d 3f 07 6d fa bb b8 e3 c0 3f
       0.02882500977725509 0.1319495122778351
000180 17 ac f1 73 94 92 b7 3f da cc 7b fd 50 b1 a9 bf
       0.09208038168587539 -0.0501809415271965
000190 5e 3f 2a 96 47 85 cb 3f e7 41 8c 92 06 a8 bc 3f
       0.215004871676224 0.11193886831120602
0001a0 a8 45 ba 57 bb 52 c5 3f 23 3f de ab e6 85 c6 3f
       0.16658727439475496 0.17596133605956607
0001b0 a2 4e ce 4c ab 46 c2 3f a1 98 9a e1 87 6b 8c 3f
       0.14278165102279156 0.013876973698028929
0001c0 3a d2 c0 bb 1d 96 b8 3f e1 63 77 cc f1 a5 70 bf
       0.09604059060877371 -0.004064507032546212
0001d0 a2 9e b6 32 4d 1f b0 3f dc ae b3 1b a8 31 b8 bf
       0.062977623826209 -0.09450770069423292
0001e0 65 c6 e6 57 6d fa b4 3f 21 40 cb 65 d4 d1 86 bf
       0.08194621463806014 -0.011142405849938143
0001f0 df 2e 4e a7 3c b5 ba 3f dd ce af fb c0 89 ca 3f
       0.10432795605282362 0.20732891358749486
