Image feature/texture_feature/weights/fast_top/model_W_0.npy (npy, 295040 bytes, 1 tensors)

array f8 [288, 128]
00000000: d767 ad18 1d5e c0bf 5cb4 ceb5 9c31 943f
00000010: 990e af06 d3c0 a73f a5ef 07c4 b575 b3bf
00000020: 70af 83cd a70c aabf a8cd 103e a385 b3bf
00000030: 3dfe 0f50 33ed a83f 092f af4f 72e8 b4bf
00000040: 256d 1883 2ba7 b4bf 4bc1 50b3 917a b53f
00000050: 6c03 1b89 5250 a03f 46e2 01e5 a44e c13f
00000060: 7000 55ba 8606 913f 3497 d0c4 a300 b7bf
00000070: 337c a195 f8b4 a73f 1a7d 821c b8ac b1bf
00000080: 16d1 cc81 9932 a9bf 74c2 d485 ff2a 713f
00000090: 0056 0da4 7f8f a23f c475 ebae d6d0 8bbf
000000a0: e7a8 fac0 0993 a1bf bb8a 98c0 a83b c93f
000000b0: ae49 27fc f8ca 7fbf 54c2 2485 b80f babf
000000c0: 4369 afa8 5166 bebf 8411 2aa9 2d64 a93f
000000d0: e0ea c7fd cf60 98bf beba 8b49 7c56 8abf
000000e0: 0335 e775 8bbe c63f ffd3 41fe d99e c0bf
000000f0: 3a3b 28fa a9a5 a6bf 152f edb6 1719 bcbf
00000100: f30f cd51 ad33 b73f 3943 a23f 6dca 703f
00000110: 734c c718 317d aa3f 9867 aa9e 6e98 bd3f
00000120: 47e5 9e37 c491 a2bf 8d1b 693f 785d 9dbf
00000130: 33ad 7175 cf53 95bf a681 3025 8b4f 92bf
00000140: 0053 2873 02fa ae3f 80d9 7dd1 978e 953f
00000150: 2d34 03a5 d2f7 b4bf c470 f346 bc78 83bf
00000160: a389 af5d f2ca bf3f 9ba3 3ffd 7753 c13f
00000170: 13f1 2669 5654 c0bf 64ce 76d8 2e0a b2bf
00000180: ed37 2418 c13c b7bf 85c3 5f0b 59df aa3f
00000190: 0608 0f8e adca b3bf d06a 910a 1fcb b4bf
000001a0: aab5 4785 6eef c63f cc6f 20b6 cb16 b5bf
000001b0: 7c98 e390 ac9b 5d3f 2cb4 80d3 5c8d 97bf
000001c0: 5db6 0b2f 0b07 a83f 16d1 d0cc 84e6 7a3f
000001d0: 8bf6 472b 2315 a93f 35e2 6f45 fe2f c33f
000001e0: 764c 9129 f6d0 b7bf 86f3 6f1b 0e12 b2bf
000001f0: 3dc6 a9d5 9279 92bf 4c37 9d72 c01d b0bf
00000200: 84bb 464c dc10 143f 271b 3818 8161 a8bf
00000210: d8a7 5780 dd44 a33f 2fdd e358 d184 a1bf
00000220: 2b02 7a1d 109a b4bf 78a0 2763 3c16 c03f
00000230: a191 2f69 795e b5bf 792c faa5 126a b3bf
00000240: 7c04 bd9f a490 943f 3a33 8c2f 481d a63f
00000250: 1448 5e8a 4354 abbf e169 5edf bcc5 af3f
00000260: dc50 fd49 c641 acbf 787c 818d dd25 a53f
00000270: 6069 28f3 5d9c ba3f 5913 7768 389a ba3f
00000280: 40ac 4b92 53d5 583f e555 4955 b7c2 a2bf
00000290: 1ae5 eea5 760d a03f 5393 ba03 5795 52bf
000002a0: 05a3 84b8 d9ec b13f d386 f333 2fe7 9dbf
000002b0: 39df f109 0198 b9bf 784e 75c1 7742 b23f
000002c0: 7fac 3827 97ff b8bf 0170 0e14 3269 bb3f
000002d0: 1fdb a15c 2d45 b33f 4363 77c8 4ccc b13f
000002e0: 750c 8919 8486 c13f 32d2 3e34 febe 8b3f
000002f0: 4b2a 0537 897c adbf 2097 ca34 a30b 90bf
00000300: a4cc ac7d 42ed 803f f524 5990 078b bc3f
00000310: a9f8 ee8f f327 9a3f bd02 c6fb faa9 a53f
00000320: 3c9c 438a fbeb 7f3f c0c9 4ae6 275a b7bf
00000330: f7d6 e36e 74b2 8e3f a1fc fd65 148c c03f
00000340: 2077 9c6c 381c 953f 8257 6c34 195f a1bf
00000350: ae34 da13 1fd4 af3f 0a0f fbb4 e980 743f
00000360: 4aed 765b d323 c1bf f2cd f488 3788 893f
00000370: 729f 8083 f30f a3bf 582d 00f4 f4ff b2bf
00000380: bbb6 dfba 904d ac3f 19c4 c723 be23 a13f
00000390: a2b0 322a 8c44 bb3f ef5f 0a3d 67c9 b2bf
000003a0: bd67 c312 8551 a13f 4ce4 3c66 900b a1bf
000003b0: 84fa 1a94 8910 8c3f 1a96 2427 3428 bb3f
000003c0: 8d21 7f60 67b9 63bf 99d3 1d89 738b b1bf
000003d0: 7e21 9e61 f00d a3bf e019 4eea 7118 a3bf
000003e0: 7d99 e1f7 6c9a ae3f 1b63 1f00 ee0a 9dbf
000003f0: cb54 9f11 7aec b4bf fd74 9aad 353a 993f
00000400: 40b0 5b93 33ab ab3f 9715 061f ebb7 bbbf
00000410: 790f 9111 9c02 a33f 33c0 c1f6 21b4 bb3f
00000420: 3fc8 b8ed 0867 b4bf 1f0d 8b17 5faf ad3f
00000430: 8682 fecd e334 74bf ef60 78d0 b73e b1bf
00000440: ba4c 0d16 bd37 96bf fdbd 44cc 17f8 a0bf
00000450: 7ae5 fdd1 1b44 f93e c9ff 836f 7d41 95bf
00000460: f4de 8764 1665 c0bf 679d c518 cff7 8b3f
00000470: 9a64 8e13 6646 ae3f 857a f0ac 47aa a43f
00000480: ace8 bdf9 9531 c23f 59d3 9754 5fb3 913f
00000490: 3d27 669a 8827 c2bf 0f35 1d0d 9a6a c6bf
000004a0: f74b 3635 193d b2bf a97e 5d74 320c a93f
000004b0: d969 9c82 c6c0 c5bf 9635 6665 66e8 aebf
000004c0: d64e e906 9a16 c13f dd90 08d1 2a91 a73f
000004d0: f952 8a92 4b8e a8bf 637b a4ec ea04 c43f
000004e0: b7e0 6217 933f 9fbf 7860 12d5 4ccb a43f
000004f0: da3e 44b3 28fd b8bf 1ebf 395e 8974 c13f
00000500: c5a4 dd00 6748 afbf 6a73 1f0b 9e20 813f
00000510: c964 9c50 03f2 bbbf 2894 3371 0a40 7b3f
00000520: ffd9 dd9f c721 a43f 14e8 0991 3a93 cfbf
00000530: 6e05 f8c3 ff71 a93f 849c 5b68 3daf b13f
00000540: 9b59 50ca ebd4 c4bf 4cc2 7741 ddea 93bf
00000550: eb3d 53bf 871c c6bf ad2f 1928 bf33 babf
00000560: e6fc ec6b 0eae a7bf 492b ff15 83f0 953f
00000570: afb7 9e82 12fa b7bf 88a3 6a68 4919 90bf
00000580: 9368 79fe 6d7e a23f 6397 7c98 de10 babf
00000590: 6d90 ad20 7c6c bbbf ed24 e3d6 1fe9 b3bf
000005a0: bfc4 2318 bbf7 ae3f c663 e630 38f4 a73f
000005b0: dbac 2ddd dbb8 c3bf 7490 b727 cff0 b2bf
000005c0: 2c2a db26 baa6 a63f 7008 f6ed a1a1 9dbf
000005d0: 13f3 e319 20e0 a93f 65e9 3c02 9b96 ae3f
000005e0: 3471 e811 70c0 923f e1e8 0eb5 bd04 aabf
000005f0: e79e a177 4aec 8f3f 1102 9955 80ed b1bf
00000600: 1ad5 6812 a130 ae3f a136 2306 2c34 bd3f
00000610: 079c bad2 c70e a73f c9f5 3b4e 602a b1bf
00000620: f277 2bd6 3b2b ba3f c846 92c0 9fc1 bdbf
00000630: 5d8a ad6c 720b bc3f a330 3107 0843 b43f
00000640: 83fe 1b32 2f7c a03f d399 314d 4553 b3bf
00000650: dd12 521a 0d65 b43f 7b10 ad32 6cf3 a93f
00000660: cecc 4519 7d31 babf 4bdd b7a8 c5e9 93bf
00000670: 696b 29b8 ec91 92bf 43c2 97ff e1d4 85bf
00000680: 0aff 8ad4 0d18 aabf 4c65 3f57 9d07 903f
00000690: dcbb 807b 468e c03f a054 c9db a323 93bf
000006a0: db07 6e47 7c74 3dbf 5fca 07cc 7ded 873f
000006b0: 1215 620c b1e3 b0bf da81 a123 729a a5bf
000006c0: 82ab 6dfa 023b b1bf 709a 0b3f 8dbc b73f
000006d0: e122 ae79 8e74 bbbf bfce 3caa 8029 60bf
000006e0: b993 2f3a 36fc c1bf 219d 3874 60b3 a43f
000006f0: 1c0d 0442 9a48 bdbf f6fb c06e 0b2b 91bf
00000700: a511 2047 ceb1 99bf 64b3 6f0f 9c4f 903f
00000710: 2799 cde5 adb8 9fbf f670 e02a cb33 a13f
00000720: 37d4 ee3f 8fe0 c83f 2f70 ae26 92f7 8fbf
00000730: b240 a396 52d5 b13f 326c 8be5 92e8 ab3f
00000740: ccd1 4d7e be51 a1bf fee8 2465 a9df b43f
00000750: 37fc a8a5 7e72 afbf ab7a ece5 c510 be3f
00000760: 55ca d78e 4ad0 9bbf 1bab 01c2 5dc6 bb3f
00000770: a8f0 359c 7f09 a63f 3282 7920 6510 b7bf
00000780: 98cb 5541 a091 c13f d914 8610 5727 b5bf
00000790: 6d5f 1e9e 74af 7e3f 4eef 493c 2f4a 97bf
000007a0: 1569 6981 868c b63f 7df2 2cb7 dfe8 babf
000007b0: 3f06 5ed9 7b9e b2bf 346b 68da 72de c43f
000007c0: 484e 02ed 662a 933f eac4 9cb7 91b5 b4bf
000007d0: 0683 bb91 286b babf d7ee 6169 72a4 af3f
000007e0: 165b 91b8 6827 75bf 2f5f 97c2 6453 c03f
000007f0: efc9 d3e7 59a1 b1bf b233 196c bbb1 bdbf
-0.12787212090444086 0.01972050532974766 0.04639300781812245 -0.07601486240304085 -0.05087780364723826 -0.07625789895319335 0.0486846957428466 -0.08167185254495392
-0.08067581129619279 0.08390150668924894 0.03186281131411914 0.13521252805709788 0.016626458285145806 -0.08985351138161662 0.046302574410895046 -0.06904173561132546
-0.049214169592604204 0.004191396842813878 0.03625105741108925 -0.013581921780707946 -0.0343249366827239 0.19713315395445882 -0.007761929128223972 -0.10180238009048398
-0.11874876373568548 0.04959242525095234 -0.02380681024986131 -0.012860270494880918 0.1776899648379314 -0.12984776415729013 -0.04423266581226533 -0.10975788322428699
0.09063227889151886 0.0040992991945508145 0.051736387514801495 0.11560717939064913 -0.0362683599373193 -0.02867687117602773 -0.020827523749557385 -0.01788155951010286
0.06050117164355662 0.02105176178107504 -0.08190647629381038 -0.009507628360033833 0.12419047152756106 0.13535976281789605 -0.12757377752667107 -0.07046788010375732
-0.0907707866610676 0.052485258711278106 -0.07731137006979347 -0.08122438438423818 0.17918187625711585 -0.08237908550694256 0.0018071351255968529 -0.023000193032363267
0.046928739064111304 0.006567496061553399 0.04898939040502367 0.14990213766556484 -0.09303225054581951 -0.07058799905639832 -0.018041891375508923 -0.06295397566028987
7.654518692022492e-05 -0.04761889858860107 0.037634775082395044 -0.0342164441116729 -0.08047581405299613 0.12567858544867128 -0.08347281282437403 -0.07583729316881883
0.020083019494681484 0.043192153743893916 -0.053377257004413675 0.062055494562816234 -0.05518932011787722 0.04130451538434782 0.10394847094031467 0.10391571569841797
0.0015157047393426076 -0.03664181629271094 0.031352718120112935 -0.001134238219415458 0.07002030138813715 -0.029202210946897744 -0.09997564785760184 0.07132671807385715
-0.09765000064423822 0.10707390775354499 0.07527431022195373 0.06952361959646418 0.13691760298579295 0.013547883958247107 -0.05759075924523368 -0.015669393632058548
0.008265037021919781 0.11149642252088994 0.02554302755356078 0.04231247256666879 0.007793409899227884 -0.09121941921583865 0.014988813051313594 0.1292748926170804
0.020615464810467832 -0.033928668641393336 0.062165232823738634 0.00500575343875532 -0.13390581098597415 0.01246684443194732 -0.03723107319120701 -0.07421809155510084
0.05527927666831319 0.03347582041522674 0.10651470213150785 -0.0733856700920794 0.033825071850244616 -0.03329135177632078 0.013703417618100795 0.1060822101176985
-0.002407743366323162 -0.06853410813876194 -0.03721572105047509 -0.037295875407881374 0.059771924265805666 -0.028362005956156993 -0.08173335008844444 0.024636114807994314
0.05404053853803292 -0.10827512271324334 0.0371292849963813 0.10821735643708123 -0.07969718745951669 0.05797860300438117 -0.004933252202960708 -0.06736325111012652
-0.021697000952667557 -0.033142799077150877 2.4095582488813692e-05 -0.02075763695847835 -0.1280849448082716 0.01365625185344639 0.05913084973071499 0.04036163316799438
0.14213823980737084 0.017285813844824947 -0.14183146990790788 -0.17512822761856525 -0.0712447886383386 0.048921181397188214 -0.16994553925981284 -0.06036682117256047
0.13350224816769324 0.0460294132392691 -0.04796062625715609 0.15640007548150966 -0.03051595525968828 0.04061355687116558 -0.09761289955735766 0.13636891461236983
-0.06109926114624779 0.008362993921701995 -0.10916157453575005 0.006652870931451317 0.039320219292608975 -0.24668056566207552 0.04969786898801486 0.06908019826697581
-0.1627478349552803 -0.019450623627508087 -0.1727456745343113 -0.10235209206547209 -0.046249819445159976 0.021425293176246005 -0.09365955056156737 -0.015721461294251365
0.03612083178877969 -0.10181990835971315 -0.10712409780313843 -0.07777594562789476 0.06048378629373862 0.04678512188838328 -0.15407894420363885 -0.07398695678381434
0.04424077724759842 -0.02893689169787489 0.05053806606335889 0.05974277880018767 0.018312216847435184 -0.050817421295009664 0.015587407852037894 -0.07003023233210849
0.05896476125455248 0.11407733106463037 0.0450346417176704 -0.06705285940184703 0.1022221944690214 -0.11623571826410306 0.10954966691273556 0.07914781737889824
0.032197451464523595 -0.0754893601857483 0.0796669186839369 0.05068529242137828 -0.10231763712890826 -0.019446457312338777 -0.0181347834971847 -0.010659947979520306
-0.05096476764219744 0.01565404744164782 0.12934189825452236 -0.018690643586826483 -0.00044944795757128974 0.01168344763661827 -0.0659742980224858 -0.04219395337054595
-0.0673066960713822 0.092720821277547 -0.10724726172169198 -0.00197291498070648 -0.14050939408403254 0.04043103617396527 -0.11438907729830244 -0.01676576484191724
-0.02509233769525711 0.015928686563643338 -0.030977933074063515 0.033598278984046034 0.19435301419949422 -0.015608922772848725 0.06966129472425811 0.05450877239282938
-0.03382678310200368 0.08153780669536911 -0.06142040035455703 0.1174434362733147 -0.02716175553173124 0.10849557863700136 0.04304121763104379 -0.09009391825521432
0.13725665273849752 -0.08263153222476961 0.007491546189974813 -0.02274392896150284 0.0880817476221732 -0.10511587354717196 -0.07273077065294674 0.16303859390685604
0.018716438499337934 -0.08089552624439347 -0.10319760854646284 0.06180150543602075 -0.005164536539345807 0.12754497052696354 -0.06886827382894699 -0.11599322690126604
