Image feature/texture_feature/weights/fast_top/model_W_2.npy (npy, 2688 bytes, 1 tensors)

array f8 [64, 5]
0	0x3fb8470d9f5e1a5d	0.09483418598947808
1	0xbfe5dfbbf8d810d4	-0.6835613117441661
2	0x3fd5aa5fefa6ac8d	0.33852384951996656
3	0xbf9436ba53a949a6	-0.019740020138053226
4	0xbfd15aee8dfab114	-0.2711750399128203
5	0xbfd22ba4e2f881ab	-0.28391382374868596
6	0x3fc251d1a0a100f7	0.14312191336831123
7	0x3fcae235a651546e	0.21002836819630794
8	0xbfc538273271d731	-0.16577615702743168
9	0x3fd187dfc6f3fab5	0.27391809872635103
10	0xbfc6769a0203566b	-0.1754944333867344
11	0xbfd58f95b9754b01	-0.3368887244334218
12	0xbfde992ceb316c75	-0.47809908836433773
13	0x3fcf6bdf531b664b	0.24547950323067122
14	0x3fd3158c933dd2f0	0.298190254011657
15	0xbfc413ef61aec18c	-0.1568583704916019
16	0x3fd20bdc2532d308	0.2819738734499855
17	0xbfc1a9afabf0d4de	-0.13799091239494649
18	0x3fd05bc8580d4d9f	0.25560196493935367
19	0xbf930b466b41d4c8	-0.01859769849439344
20	0x3fd4556cc5bb5287	0.317713921639815
21	0x3fd59e6c839ae8ce	0.33779442646085733
22	0xbfe68bda3cfa351b	-0.704571837517196
23	0xbfe9af7d0ca9347f	-0.802671932915146
24	0x3fce45d69b262505	0.23650629592547304
25	0x3fd82d2ac53123a2	0.3777567792608868
26	0x3fdc0b656ffc2c53	0.4381955712894456
27	0xbfdaae6a1eb61737	-0.41689541815900405
28	0xbfd39f79dda05cad	-0.3066086448975039
29	0xbfdcf428c089d892	-0.45240229418357913
30	0xbfb5cbacbbb0da3b	-0.08513907987876561
31	0x3fd31f33eeec54e9	0.2987794717058266
32	0xbfde02d23107c368	-0.4689221838771602
33	0x3fd90691141b1c6b	0.3910258003565505
34	0x3fd52b13c9c8436c	0.3307542295961443
35	0xbfb7f5250875a732	-0.09358436066181922
36	0x3fd0845ddf040b96	0.25807902125250715
37	0xbfd4f52f964655b3	-0.32746495890873034
38	0xbfa7304569cc5f81	-0.04529015461429165
39	0x3fd3d2f8329c25f9	0.30975155775431024
40	0x3fbbea55c894cff8	0.10904441973690371
41	0xbfcb0eeb96264fcd	-0.21139283019567615
42	0x3f8b77583cc05ae2	0.013411225656495277
43	0xbfc8c1f3fc11f686	-0.19341897781480472
44	0x3fdef610508c011a	0.4837685381499043
45	0x3fdda6f469f21daa	0.46331510874048354
46	0x3fdf7851225a35f8	0.4917185626480598
47	0xbfd565b266eb5b41	-0.3343320851394545
48	0xbfd7bd9ccc596333	-0.3709480281445849
49	0x3fcda96d47431d12	0.23173299769971628
50	0xbfe4b96b6cb267bf	-0.647634231852173
51	0xbfd7e7b2798ac9b5	-0.3735166727957691
52	0x3fd96ea6c82bc358	0.3973786310953549
53	0x3fd7e2fd5df3bd6d	0.3732293527127329
54	0x3fd23e0d5b692b3b	0.2850373642619847
55	0x3fd5b25d6be490ba	0.3390115312233878
56	0xbfd5759affa43f7f	-0.335303067827219
57	0xbfda06211f569500	-0.40662410793659376
58	0x3fd2b584dd57a44f	0.2923290406748195
59	0x3fd05a577957abb2	0.25551401948785746
60	0x3fd9f411b332aa03	0.40552179813190053
61	0x3fdc0655fb10c598	0.4378867103397055
62	0xbfe5a9788acb64f4	-0.6769373617964036
63	0xbfbc7f8d1bf28f7f	-0.11132127697288573
64	0x3fc88c1a4bbca9ba	0.19177559564680086
65	0xbfe72dfaeec14cfe	-0.7243628180680444
66	0xbfe0131824c94f69	-0.5023308485492467
67	0x3fd6cc8653b0cc78	0.35623319790756325
68	0x3fd715cf18742197	0.3607061137013487
69	0x3fd4dcd2426e57a1	0.3259778641453242
70	0xbfde7f3b0a773bcb	-0.4765155412869119
71	0xbfd3d1de7d3cbc77	-0.30968439321708935
72	0x3fda83ba652176a9	0.4142900455097825
73	0x3fdb40041b294c8c	0.42578222897027085
74	0x3fd8e47cb4041afe	0.3889457471818075
75	0x3fa875549713e72c	0.047770160143001256
76	0x3fc51be2778cfe7d	0.16491347157897343
77	0x3fc695764b89c7d7	0.17643622101201004
78	0xbfd5bf7151c29272	-0.339809732288166
79	0xbfd782d759a2ff58	-0.3673609137876972
80	0x3f921ed363fad201	0.017695715882569022
81	0xbfec2730d872e7cf	-0.8797840335384935
82	0x3fc9ae3de85c66b3	0.200629938561908
83	0x3fc8075ecc1fa4e2	0.18772492377255562
84	0x3fc4418c166893b4	0.15825034231343482
85	0x3fd26f7aa1396ca8	0.2880541395622438
86	0xbfc139ecac9ccedc	-0.13458021572443257
87	0x3fd1d19404cf3d24	0.2784166380851778
88	0xbfd5a9f1b015f14e	-0.3384975642764133
89	0xbfb0908dcf5040e8	-0.06470571814884674
90	0x3fd7f1b9b4b296b8	0.3741287483811493
91	0x3fd8e1af8bcfb2bc	0.3887747636170322
92	0xbfdb00e339584eff	-0.42192917442410754
93	0xbfcd2fe1d1a005ec	-0.22802374587631336
94	0xbfdbd33ead9e7cb8	-0.4347683616160327
95	0xbfb79ac191985357	-0.09220514111104926
96	0xbfe9e6c5111dcd46	-0.8094201406769705
97	0x3fd89dedeef59f68	0.38463924728283994
98	0x3fd812f3197414e2	0.37615659223258835
99	0x3fd5c8d10b93fc29	0.34038187151594684
100	0x3fd351710c368ff2	0.3018458003300558
101	0x3fda74cbcce3411d	0.41337866791310934
102	0xbfabd71095fbab94	-0.054375189121706274
103	0x3fb2aa036b28fadb	0.0729066979047092
104	0xbfcb2b7cc93b65fb	-0.21226463151724304
105	0xbf6ec9f5a9d2a90d	-0.003758411227484554
106	0x3f70c691fe87e360	0.004095621385652531
107	0x3fbcb9d65c022dbc	0.11221065279294512
108	0x3fd43e00d563b932	0.3162843784220001
109	0xbfbcfaf41343263d	-0.11320424528380442
110	0x3fda204ae8da8d02	0.40822098483677405
111	0x3fde61f6007950e7	0.4747290615680541
112	0xbfdadac8a12ee03a	-0.4196034978917883
113	0xbfd8596397ef1018	-0.38045587384499546
114	0xbfd49c5558058249	-0.32204183193065156
115	0x3fc57d9ed764d5d7	0.16789613263396916
116	0x3fcb6ceaf0fff483	0.2142614056355435
117	0x3fa8575ad97cf19d	0.04754146485217634
118	0xbfd9a9ed64362bb5	-0.4009965399388265
119	0xbfcb8ab684019889	-0.21517068334214098
120	0xbfd340a937516dbd	-0.3008215942588455
121	0x3fd0b8e9dfe31367	0.2612862287899617
122	0xbfd068754d044aad	-0.25637562295120625
123	0xbfc4f79d27fc2e21	-0.16380657627483777
124	0xbf956bd7017d8c3f	-0.020919188943832486
125	0x3fd9eb99bf6e8cef	0.40500491804614475
126	0x3fdb59229df2cb87	0.42731538223886684
127	0xbfd68b0bdac448e2	-0.35223671306552096
128	0xbfe10c3324972acb	-0.5327392306001796
129	0x3fda4e2e60e0f860	0.4110217996675427
130	0xbfd6e06e3c88b616	-0.35744815742040836
131	0xbfc3c489166cb04c	-0.1544352874274203
132	0x3fdafd6303fe4b44	0.421715501689665
133	0x3fda73136826e0aa	0.41327366992073655
134	0x3fd1a52d7df3647d	0.27570664691808827
135	0x3fd6f1eff6bf1b77	0.3585166844972529
136	0x3fdb2a4737ec6a61	0.42445545636443255
137	0xbfd5fafef841816f	-0.3434445785878983
138	0xbfc60a3f46354c16	-0.17218771865972887
139	0xbfc5795392d1081d	-0.1677650896909321
140	0xbfe256226b94edc9	-0.5730144597250099
141	0xbfd8429b1bd86220	-0.3790653011251681
142	0x3fd39bc5eaadbfc5	0.306382636240411
143	0x3fd53f9735d6b312	0.332006266190363
144	0x3fd54ebecba871f0	0.33293123138881153
145	0xbfb67d3a6e0ee2d5	-0.08784833132711907
146	0x3fc7739964a10cbc	0.18321530736475278
147	0xbfde44c98c89cc48	-0.47294844364586597
148	0xbfe4bf2f17a9ca89	-0.6483378851101672
149	0x3fd37c8dd12e3071	0.30447717120910683
150	0xbfdd918be7b3eaa0	-0.4620084536287923
151	0xbfe9ba193ba49512	-0.8039671101475128
152	0x3fce45f0fd945754	0.2365094412022538
153	0x3fcc10eb3d5f69fb	0.21926632401194
154	0x3fca501474c21a11	0.2055688448055695
155	0xbfdd3667e14d607d	-0.4564456653802223
156	0x3fde48fd8db75419	0.47320498313394094
157	0xbfb4b816d08698ea	-0.08093397704087449
158	0xbfcc5596b3b25bce	-0.22136195921186047
159	0xbf9edc65e621d552	-0.030137626811172886
160	0xbfc97ceb3e29804a	-0.19912472281703436
161	0xbfcd48c904a6c523	-0.22878372885819784
162	0xbfd4169e75032548	-0.313880552549183
163	0x3fd045c78d24809e	0.25425900252776923
164	0x3fd4b80c67c030bd	0.32373342639835895
165	0x3fd8c89390641d72	0.387242213255795
166	0x3fd3c352d84afae8	0.30879660723068847
167	0x3fc14467c09edae5	0.13490006356524656
168	0xbfd1f0e6b074d7ba	-0.2803284381110377
169	0xbfddfe7648e0a259	-0.4686561309522737
170	0xbfcb6d20f0c07617	-0.21426784282168462
171	0x3fdf2cadab722b34	0.48710195296068837
172	0xbfbe78f6833a40cd	-0.11903324798390998
173	0x3fbeb3b812b0bc98	0.11992979484851884
174	0xbf9a994c1c83d035	-0.02597540782967674
175	0x3f9b7ce7cf1c9e6f	0.026843664184666268
176	0xbfc9c9c5b2c84df8	-0.20147010068522753
177	0x3f98a2f4b649cbc3	0.02405912745093609
178	0xbfd37307e38adebf	-0.30389592381423464
179	0xbfbc2d82ab21f94e	-0.1100694339565724
180	0x3fd8f9a1daf375ac	0.3902363432115077
181	0x3fd687e3e6fe826f	0.3520440822412984
182	0xbfa00d27b89e8b12	-0.031350365911995706
183	0x3fd143fbed197019	0.26977441934809715
184	0xbfc917d86e4f9439	-0.19604020487091292
185	0x3fc4cbc64d58cb51	0.1624687078161409
186	0xbf67e273e966b9ca	-0.002915598287663833
187	0xbfd023d2931a47eb	-0.25218643537038926
188	0xbfd5aa52173ddb08	-0.3385205485314349
189	0x3fbf0d462a89ffc3	0.12129629648734323
190	0x3fe0edb33c03a66a	0.529016129699085
191	0xbfd1e2d501ee6638	-0.2794697302684628
192	0xbf924b95c0cc8850	-0.017866458790315953
193	0x3fd380831524bdcc	0.3047187525253008
194	0xbfa54d66e94e3eb2	-0.04160615537614144
195	0xbfdfd3d0261c84a6	-0.4973030445272094
196	0x3fa55017b7863780	0.041626683380953544
197	0x3fd33469d8b62229	0.30007406390407937
198	0x3fc3d396f8ddb571	0.15489470626509275
199	0x3fb4c5510efce5c9	0.08113581291117734
200	0x3fd31db529aa1279	0.29868821209701185
201	0x3fd47627222c695b	0.31971147858862076
202	0xbfef2878c46cf69d	-0.9736903988302462
203	0xbfd3ed54ceb71c11	-0.31136055171049387
204	0x3fcb15c526856015	0.21160187130840372
205	0x3fe21e4a0c86a189	0.5661974186560182
206	0x3fe2adb98de8a5de	0.58370664326247
207	0xbfe988f29266f550	-0.7979672297875968
208	0xbfe402b1ee411e9d	-0.6253289845853548
209	0x3fe0f5e028b056e2	0.5300141138747814
210	0xbfa6e4e63f5e5ba0	-0.044715113864348455
211	0xbfc4f901c0fe1640	-0.16384908603156312
212	0xbfd5731d5f628c44	-0.33515104594170375
213	0x3fe1dc4082bca80d	0.5581362298446507
214	0x3fe184f29a366c6b	0.5474789630856213
215	0x3fd43d74859d5794	0.31625092552473544
216	0xbfd408e20ba6e964	-0.31304217470064644
217	0x3fd018902ba15651	0.25149921665920255
218	0xbfd7189d20ed6a6b	-0.3608773061329546
219	0xbfe1a4f327b8b602	-0.5513854766665534
220	0xbfe18f3e79df47ca	-0.5487358455959506
221	0xbfc85b17d75c9502	-0.19027994170861723
222	0xbfbf7f1d03db4a2b	-0.12303334564357075
223	0xbfc9ec29acfd21ea	-0.2025196165725583
224	0x3fdb03dd6b961fc6	0.4221108961723953
225	0xbfdf53dbac3a67a7	-0.48949329203753184
226	0x3fd607ff1de8ed4f	0.344238070687159
227	0xbfb8d27d680b5389	-0.09696182050841008
228	0xbfa0a845a6451cd3	-0.032533813997866944
229	0xbf96dc0e94f5a80f	-0.022323825685283846
230	0x3fddd7e56de113e8	0.466302258781353
231	0x3fdf852397d49dd6	0.4925011618347218
232	0xbfe14c6714a1619e	-0.5405764964044015
233	0xbfd4899c65f8e752	-0.3208991046736759
234	0x3fd468182eb71016	0.3188534218027156
235	0xbfbeeae3a60fafcb	-0.12077162555914282
236	0xbfce773d1f7902d6	-0.23801387821915537
237	0x3fe2d711c82eb4c8	0.5887535962880515
238	0x3fde865d83171a26	0.4769510059526588
239	0xbfda1096e01c5ff7	-0.4072625340063491
240	0x3fd1789684c1dfad	0.2729851051767536
241	0xbfe0b1d1a8f43089	-0.5217064189796626
242	0x3fdf4dd8fbe03c58	0.48912644002206696
243	0x3fd9225ada9b5523	0.392721856578037
244	0xbfb39bbd9f33b819	-0.07659516464966067
245	0xbfe58ee43404d033	-0.6736928001396393
246	0x3fd3eddb7a278c4b	0.3113926594653022
247	0xbfb222c5ac3765f9	-0.07084308104040095
248	0xbfb2968c7b7ebec1	-0.07260969176308675
249	0x3fb5ad712d38c493	0.08467776636168116
250	0xbfd02e34e67642a3	-0.2528202295880339
251	0xbf76462deec30ae6	-0.005438022064654579
252	0x3fba1dd52144440c	0.10201770841764829
253	0x3fbe0ce5258da5de	0.11738426367596541
254	0xbfc60b94a19d2e7b	-0.17222841159160737
255	0xbfd2194c5b697fcb	-0.28279408385241983
