Image feature/texture_feature/weights/fast_top/model_W_1.npy (npy, 65664 bytes, 1 tensors)

array f8 [128, 64]
0.1456295988400112 0.2462415944933228 0.009847998467298464 -0.15322101627321744 -0.2312439434207846 0.029479076001675805 0.07175538168691062 0.0167209265389628
-0.05556485508260757 -0.07988996132430148 0.350720913349936 0.15961115950346563 -0.10495349300346551 0.27578142490596486 0.15075755415245798 -0.2339722951765972
0.18245913866340963 -0.007869623784411823 -0.0113183179577742 0.09147292371731128 -0.28721565392267795 0.2701951724951463 0.018702599329466458 -0.22553507199998624
0.09539259036376874 -0.09524560418747723 0.056288907394887226 -0.09402382777380636 0.2387628598289462 0.020085707962525012 0.26020997001617613 -0.06877678550437234
0.03827889163201254 -0.07441339252744646 0.06260084988451341 -0.0383209144596973 0.026693912068597066 -0.14081180940443822 -0.05457494986945735 0.18002617847941452
-0.3309479100398142 -0.1833806493798768 0.028847951280602704 -0.03651097837665109 -0.032916640120827005 0.2622503154325827 -0.22249692641995014 0.022392526819684087
0.17115357090278285 0.13785874151604818 0.1688592578798709 0.127401820916224 0.010398859682639603 -0.07070340387120891 0.01469816357993658 0.03515929796208833
0.2272996421546166 0.07378897657823093 -0.09721382234675496 -0.4105132872592505 -0.21973944947861807 -0.17708425656751878 0.27674205271949137 0.09020017773797252
-0.02573621675965961 -0.13142499528765358 -0.04486967676098971 -0.14556735505931476 0.26277547888083325 0.16834405837939193 0.0008405089391306261 0.07500720015264638
-0.017430562479127745 0.242018068362011 -0.19547452933281986 -0.16991784396313764 0.04434617889219785 -0.1621969200958814 -0.16203432960034003 0.1340406112458252
-0.06168079174774279 0.07256860121230059 0.12625277324866438 0.06173606137735627 0.16345267832388033 -0.05230987640676801 0.021654210916513546 -0.029017641444446983
0.14723700274558665 0.05335267628330636 0.001155994342814181 0.044805846053926894 0.04148591565220889 0.08315504890878672 -0.10565948968587696 0.17149247919314242
-0.009011591861528525 0.08487499051560564 -0.003203713666575217 -0.08735573074140833 -0.04391174190053685 0.07397351377770904 -0.08822834539664506 -0.12992019107478175
0.291400567586297 0.2407334357024863 0.06168886508073893 -0.19969406564549105 -0.026193936509632736 0.007682334268592804 0.08222129841862333 -0.11742464880558565
-0.23461626820201975 0.04996145828593212 -0.00612329440552416 -0.04612123251306602 0.15697879749378513 -0.015068889548398662 0.25951109726816507 -0.07613245819314478
-0.10891805811212234 -0.1176083741366346 -0.10679460176393091 -0.003390285726455524 0.31894813771087765 0.14657763437443594 -0.17784597561464238 -0.127904683318527
0.009367797140799768 0.035629015647021194 -0.2713152580432554 0.04326794009180383 0.12053324877305206 -0.02168303742047886 -0.09873337997795552 0.07175818628780947
-0.1527933103214925 -0.001247663802911403 -0.06537388485236935 0.05311839317284492 0.04436780981883521 0.08750178764598375 0.02098301909770222 0.010809005405696723
0.23510480386790977 0.2642053162733519 -0.15701998998537584 0.009678569681052282 -0.2208337484115823 -0.08700358260918921 -0.2503047836630415 0.15573498862056415
0.11007086675961125 -0.0057264327119564236 0.04648065859915831 -0.023937196126962695 -0.06797142395584053 0.3021779740295988 0.02090666391105161 0.02734344506357987
0.10816193994301639 -0.11107478804971634 -0.05295702365187747 -0.004998722900475602 -0.09370055081581384 0.20549392577294984 0.05763149111814484 0.005351863034712694
-0.061096532736559676 0.07553038436865696 -0.1646471747130707 -0.22384573088842896 0.3110989674802238 -0.06684232522132863 -0.11117885484444283 0.10738212577920962
-0.30632249860130034 -0.02420455661119523 -0.13446291617586908 -0.021848903284810227 0.041211253027267004 -0.08086503968959968 0.2338668518728152 0.0690484324737578
-0.20216732126681375 -0.05719088755281223 -0.2564725446905159 0.06272459072176174 0.01598973570782797 0.08478288725121658 -0.19889942742054764 -0.12879401148549066
-0.06481687135147077 0.23600883838157397 -0.02963349275512278 -0.09693674619097307 0.11953083400659864 -0.18117490402492686 -0.028508109334260987 0.17818548082116178
0.14608247097211668 0.0471908711609764 -0.04380612856062933 -0.11943646611172391 -0.024922635907157452 0.11508922074171532 -0.18621241223291668 0.06603127304727682
-0.09701893319505718 -0.17723214550067884 0.05519178963780072 -0.09289073940145358 0.12513006949025293 -0.415539399867308 -0.01308028039380606 0.19346627805839992
-0.18403160983396918 0.3348129621956756 -0.187008619702668 -0.03791225653445915 0.1460939051059028 0.36628160282869787 0.018887042271888307 -0.10914585707738546
0.08770450212778218 -0.1544182219567505 -0.04530385008655744 -0.10750956290355111 -0.015392757868104774 -0.11590780747796388 -0.07581217594313426 -0.057773681083913606
-0.004759294274155051 0.22388782226531373 -0.19766466144378148 -0.2519674905481553 0.07053792314371285 -0.01228252369929792 0.1539282637335919 -0.15687438782752658
-0.12522928315267803 0.05560181707177156 -0.0863578880838397 -0.15201436923945597 0.1940400761841723 0.10567993670099689 0.11163605483162432 0.021551764478267368
-0.28871290942387084 0.16566866625635446 -0.15813968415327356 0.12516521256181706 0.12339758688664088 0.34303906404676104 0.24948797962815714 0.0012881242788584909
00000000: 2a79 2c9e fda3 c23f 6bc1 a135 d884 cf3f
00000010: 4aeb c8fa 2f2b 843f 7607 fa0a bf9c c3bf
00000020: cdf6 31cb 6699 cdbf 6cbd 5f4d c32f 9e3f
00000030: 6643 a889 8f5e b23f 931c 9362 4a1f 913f
00000040: e207 c626 ff72 acbf f8a4 2a23 ab73 b4bf
00000050: 4f1e 3721 3672 d63f 656f 1273 236e c43f
00000060: 7404 0d6c 3bde babf 7f2f 3422 67a6 d13f
00000070: 49d9 5a06 064c c33f b70d fadd cdf2 cdbf
00000080: ca34 b530 d25a c73f 8a77 4906 f31d 80bf
00000090: 5782 cbeb 0e2e 87bf ced9 d5ff c46a b73f
000000a0: 67d1 1fc4 bd61 d2bf bfd6 59b1 e04a d13f
000000b0: 3589 e131 c626 933f 20a4 2b4f 55de ccbf
000000c0: f4a2 e417 a66b b83f 83ae 1213 0462 b8bf
000000d0: 4ff8 c650 e6d1 ac3f e04e 5511 f211 b8bf
000000e0: 217d 3b09 c88f ce3f 10a3 430b 5991 943f
000000f0: eb01 d4b7 47a7 d03f fd1c 77fc 5a9b b1bf
00000100: e98c 5f77 4a99 a33f e52f 4a8f c10c b3bf
00000110: afae f4fa 9b06 b03f ade4 b684 cc9e a3bf
00000120: a202 591d a655 9b3f ca2d 2412 1f06 c2bf
00000130: 7485 bd71 3ff1 abbf cd18 7f0a 190b c73f
00000140: 3f3c 9324 402e d5bf e624 e761 0479 c7bf
00000150: 2427 3a3d 518a 9d3f 4336 2524 91b1 a2bf
00000160: a755 a029 73da a0bf 1a83 098c b5c8 d03f
00000170: 0194 377f c77a ccbf 461d 7609 11ee 963f
00000180: 357f cf36 5ce8 c53f 01bb 23f1 5aa5 c13f
00000190: a945 1c1f 2e9d c53f a99c 24ef b34e c03f
000001a0: e562 0552 ff4b 853f a2bc 5747 9e19 b2bf
000001b0: 7dc0 181f 121a 8e3f a883 cb45 6600 a23f
000001c0: 9329 b998 2718 cd3f b174 3599 d5e3 b23f
000001d0: b4ce b24b 01e3 b8bf 1886 d685 d945 dabf
000001e0: 326b 931a 6c20 ccbf 1707 4c69 b2aa c6bf
000001f0: 7eeb 764c 24b6 d13f d95c 7add 5b17 b73f
00000200: 55d6 3845 985a 9abf 2f97 51c4 88d2 c0bf
00000210: 7c84 8a84 28f9 a6bf 3528 ac7a f3a1 c2bf
00000220: 81f8 fe3d 50d1 d03f 5492 9b50 4c8c c53f
00000230: 1272 e933 b38a 4b3f a7c1 9eff ab33 b33f
00000240: 77e8 313f 51d9 91bf 80f5 53b4 72fa ce3f
00000250: f5bc 5733 4f05 c9bf 860c 6a2f debf c5bf
00000260: f3cf 16d8 8ab4 a63f 2d70 a961 dec2 c4bf
00000270: 3c3b 3b79 8abd c4bf 5f7e d124 3e28 c13f
00000280: 7325 b2ee 9f94 afbf 315d ec18 db93 b23f
00000290: c5ef 1006 0d29 c03f f9fd 3279 de9b af3f
000002a0: 481e ec71 04ec c43f a488 d930 5cc8 aabf
000002b0: 2215 d47e 852c 963f 8637 0bf4 ccb6 9dbf
000002c0: 66d4 c67f a9d8 c23f a7ed 94bf 0a51 ab3f
000002d0: 6351 6479 97f0 523f 9f44 f1b6 caf0 a63f
000002e0: 7913 f155 a43d a53f 347e 8f37 a649 b53f
000002f0: 0480 b614 800c bbbf 367f d22e 77f3 c53f
00000300: 6e2d a462 ab74 82bf 3f49 830c 5eba b53f
00000310: d3db 8ead ac3e 6abf 3f0c a7f6 f15c b6bf
00000320: e513 bf8e 997b a6bf 0b0a 729e edef b23f
00000330: 620c 0f02 2296 b6bf 16cd e08d 39a1 c0bf
00000340: 396a f490 4ea6 d23f c4ac b26c 5ad0 ce3f
00000350: 9527 19d4 ae95 af3f 678a 933c 938f c9bf
00000360: 1b45 a652 95d2 9abf 257a 0ce7 8277 7f3f
00000370: e61d be7b 740c b53f 2e41 5db2 8a0f bebf
00000380: 44c4 84e7 e707 cebf 4f0e cc5a 8c94 a93f
00000390: 73b6 7253 bd14 79bf 04f4 96c2 339d a7bf
000003a0: fa5a b398 e117 c43f b017 611e 70dc 8ebf
000003b0: 63d0 ed6e d49b d03f 6b88 1ab2 6a7d b3bf
000003c0: 830f 89c9 0de2 bbbf 570f a718 951b bebf
000003d0: 3c26 f719 e456 bbbf 3811 37ca f1c5 6bbf
000003e0: 19a7 2573 a569 d43f b44b fb50 0ec3 c23f
000003f0: aebb 7e2c a8c3 c6bf 1cdd ed3f 2e5f c0bf
00000400: 1ea6 d772 6c2f 833f c739 fc61 f73d a23f
00000410: bce6 0cac 3a5d d1bf 16b5 5127 3727 a63f
00000420: 8996 8f59 44db be3f 4746 6502 1434 96bf
00000430: 6163 073e 9746 b9bf 1690 5397 be5e b23f
00000440: 116f 702f bb8e c3bf cdcd b6ce 1471 54bf
00000450: c511 74c9 57bc b0bf fca3 fc82 5532 ab3f
00000460: e986 55a8 60b7 a63f 0bf2 4764 8466 b63f
00000470: ee13 2f93 927c 953f b80e c225 0823 863f
00000480: a061 df09 ea17 ce3f 4fb2 346a bde8 d03f
00000490: 8d18 e724 3b19 c4bf 3875 04a2 5bd2 833f
000004a0: 7ff2 a3bf 4744 ccbf 2bf9 f0e5 dd45 b6bf
000004b0: 195e f75a fe04 d0bf c9ef 7bc5 1fef c33f
000004c0: 4c93 f9b4 9a2d bc3f 2b91 8793 9974 77bf
000004d0: 13ec 2819 50cc a73f ebcc 170a fe82 98bf
000004e0: 57f0 f342 9366 b1bf a2d5 0149 e256 d33f
000004f0: 0fd3 1077 8e68 953f fc70 3b89 ebff 9b3f
00000500: e927 ba3a 80b0 bb3f f56a 15b6 656f bcbf
00000510: bd4b 5bd9 2e1d abbf 49a6 1176 8a79 74bf
00000520: d700 5f61 c2fc b7bf 2a59 5cfd 9f4d ca3f
00000530: 65f0 24f3 df81 ad3f 05e6 4ecb d5eb 753f
00000540: ef49 0174 0b48 afbf 9dba b792 f555 b33f
00000550: 71be 629b 2813 c5bf 28ec c116 faa6 ccbf
00000560: 4867 c9a4 0be9 d33f 926f d020 941c b1bf
00000570: f348 90a9 3776 bcbf c38b 651e 657d bb3f
00000580: be61 61ae c99a d3bf baaf 3c4c 14c9 98bf
00000590: d204 c0b1 1436 c1bf 5635 3f14 8f5f 96bf
000005a0: dd65 f52f a419 a53f 5848 db3c 92b3 b4bf
000005b0: 8cc3 3458 59ef cd3f 489a 5077 28ad b13f
000005c0: 0e98 9468 9ee0 c9bf 234b 56bf 1f48 adbf
000005d0: 6921 f1d1 0b6a d0bf 5111 ce01 b80e b03f
000005e0: b149 bfff 9c5f 903f 5c22 01d0 54b4 b53f
000005f0: bb70 fb53 8975 c9bf 391b a079 527c c0bf
00000600: d200 afa6 d697 b0bf 4139 35a1 8935 ce3f
00000610: 507e ff08 3e58 9ebf ebbe abba d8d0 b8bf
00000620: a404 ec9e 9299 be3f d04d d23f bd30 c7bf
00000630: c9b7 0bd5 3a31 9dbf c7dc 5f26 c8ce c63f
00000640: d00b ac95 d4b2 c23f cdbe 9ce0 6629 a83f
00000650: 4986 10c3 c16d a6bf 8b50 e663 6393 bebf
00000660: 36fd 9ac8 5185 99bf de31 35b7 7c76 bd3f
00000670: a627 53ee ced5 c7bf 3655 40ee 6ce7 b03f
00000680: 6963 2a99 3bd6 b8bf 96d7 5cfe 8aaf c6bf
00000690: c40e 0127 1942 ac3f c39b d4ff afc7 b7bf
000006a0: db79 1a1a 4304 c03f 9f4a 2891 3298 dabf
000006b0: 4a7b 1c84 d5c9 8abf b5e0 91c4 80c3 c83f
000006c0: 8164 d508 598e c7bf 6211 ba58 936d d53f
000006d0: 33b6 d800 e6ef c7bf 9cba dd3b 3c69 a3bf
000006e0: 6492 4980 34b3 c23f 5fa5 5164 2871 d73f
000006f0: bff3 80f3 1f57 933f a929 a49e fbf0 bbbf
00000700: 2bcd 5960 cd73 b63f a1f8 9aee f9c3 c3bf
00000710: 9d61 02f5 1032 a7bf db91 ad28 bf85 bbbf
00000720: 772c 1cfd 3c86 8fbf 150b 7852 22ac bdbf
00000730: df79 5040 6d68 b3bf e65e a60d 8394 adbf
00000740: 390f 2754 7b7e 73bf 5614 4d2d 5ba8 cc3f
00000750: 0cec 3c5c 134d c9bf 1dcf e340 3c20 d0bf
00000760: 9eae 07f9 c50e b23f b37f ce6c 9427 89bf
00000770: 3f3a 55dd ebb3 c33f bb4d a6be 7514 c4bf
00000780: 1936 d25d 8307 c0bf 1cc6 d763 d777 ac3f
00000790: 385c 12f1 8c1b b6bf 77e8 33f4 3475 c3bf
000007a0: e884 a922 4ed6 c83f b360 f91f d70d bb3f
000007b0: f968 8e34 2e94 bc3f 67c7 6b6e aa11 963f
000007c0: 7225 fab5 457a d2bf 6880 c57f a134 c53f
000007d0: 96ac d1d1 eb3d c4bf e262 46e7 6905 c03f
000007e0: 645c 15f8 fb96 bf3f d333 551e 5af4 d53f
000007f0: 13c0 9fdc 38ef cf3f f407 a8e9 c81a 553f
