Image feature/texture_color_shape_feature/Single/weights/top/model_W_1.npy (npy, 16512 bytes, 1 tensors)

array f8 [64, 32]
000000 8a 19 39 5b 6f e4 d5 3f b4 af c2 bc 69 11 ab bf
       0.3420675650453623 -0.05286722592549556
000010 53 a0 dd 61 ec af c4 3f a1 0e 60 39 a6 3d d5 3f
       0.16161875513648968 0.33188777545022147
000020 54 58 3f e8 c6 83 c6 bf 8e 80 59 84 59 b3 c0 3f
       -0.17589651432234865 0.13047331774123844
000030 d3 f6 73 31 7c a5 a2 bf 63 8a 93 00 85 de bc 3f
       -0.03641880134271749 0.1127703787238175
000040 8a 78 79 55 91 a7 d2 3f 52 a9 50 c2 75 82 ad 3f
       0.29147752139204697 0.057635955782034856
000050 4a ff fd b9 6d 26 b1 3f d8 a3 21 1c 4e 11 d0 3f
       0.06699262419533372 0.25105622050483367
000060 bd c9 c7 f1 56 d1 d6 bf 29 3a 1c 9c 16 49 b1 bf
       -0.3565270768296179 -0.06752148925100045
000070 da 80 bd d0 02 a5 c3 3f fa 3c e3 e2 eb 5a d6 3f
       0.1534732360114564 0.34929940373417845
000080 85 90 04 77 71 b9 de 3f 74 6f b9 2a 2b 61 a9 3f
       0.4800685560496805 0.04956946274316368
000090 06 f9 4f 09 41 3a 75 3f 7b 46 b0 41 0c 48 d5 3f
       0.005182508514734124 0.3325224534502024
0000a0 fe 6f 9e 3c b1 e5 b3 3f 86 dd 6b fc df 49 c5 bf
       0.0777235768313744 -0.1663169844175451
0000b0 91 90 79 39 92 b5 b6 bf c8 8c 17 d2 fa df d3 3f
       -0.08870805648035886 0.3105456401519402
0000c0 51 45 b3 82 cd 3b d0 3f 05 fc 71 5a 45 7f c8 bf
       0.25365007175158377 -0.19138399997970637
0000d0 f3 57 c4 38 87 d6 68 bf 6c 6f 5b e6 02 1a c7 3f
       -0.0030319825219846607 0.18048130271824492
0000e0 7d 6e f3 71 8e 1d c0 3f 6c 79 63 e0 f0 62 c0 3f
       0.12590199054726617 0.12801943737481325
0000f0 8e 60 11 16 1c e7 ad bf 5f 5e a3 36 2c 1a d9 3f
       -0.058403852170784906 0.39222245536573114
000100 9a e0 18 37 91 19 97 bf e5 2a 10 e5 11 d1 ca bf
       -0.022558468807091538 -0.20950530705189077
000110 5c bd 96 0f d6 e4 d2 3f 4f 5f 67 cd b2 e8 7c bf
       0.29521705171915413 -0.007057856032098033
000120 d8 0f 73 58 4d 9f 65 bf c7 e0 42 2d 23 9d c8 3f
       -0.0026394377378853133 0.19229545316716765
000130 56 c7 f6 dd ed 65 cd bf 60 5c e3 cc fe c4 b2 bf
       -0.2296731313522808 -0.07331840994025773
000140 22 2b d5 37 e7 69 c4 3f b2 f2 ac 10 2c 25 c9 bf
       0.15948190904813325 -0.19644690336453646
000150 45 a6 85 5c 74 5c d3 3f 48 7d 17 0e cb 0a ba bf
       0.30251797709806666 -0.10172719091450688
000160 44 f5 14 47 61 2d 72 3f 41 b2 e8 2d c4 46 c9 3f
       0.0044378089817745416 0.197472116867532
000170 a1 ac 17 25 57 5d d6 3f 48 3b f6 d7 39 fd 69 bf
       0.3494470464926938 -0.003172505355628106
000180 53 64 0f 92 11 49 97 bf ae c6 1e 26 31 e1 dd 3f
       -0.022739672221949125 0.4668696281688466
000190 ab fc 05 14 1b 3a c0 bf 5f 51 b4 d3 51 26 b7 bf
       -0.12677324750618388 -0.09042846125186575
0001a0 3a 91 53 fd 31 c6 bd bf 75 11 3b b9 ae 3d 93 bf
       -0.11630546984412585 -0.018789987617098675
0001b0 7e ba 67 94 d7 59 c1 bf bc 72 cd 08 a8 d5 a5 3f
       -0.13555426355692995 0.042645693850066974
0001c0 d3 3a d3 27 9e 08 bb bf 7e b8 ce 4b 2a c3 c3 bf
       -0.10560024711888198 -0.1543934698251554
0001d0 84 32 8b db 39 fa b2 3f 39 d1 27 db e3 59 8b 3f
       0.07413064584688739 0.013355045438381384
0001e0 bb f3 82 b2 a7 5c c6 3f c0 26 d9 d9 eb 83 a5 3f
       0.17470260826476455 0.042022104590228704
0001f0 41 50 be 57 47 6c 8f bf 0f de d4 a6 61 08 8a bf
       -0.01534324394723552 -0.01271129885081648
000200 a1 4c 37 aa ec 1d ce bf da 3d a6 a4 59 62 a3 3f
       -0.23528822242096673 0.037859727238465715
000210 22 b5 5a 9b 8a ac b9 3f 14 5a 1c dd 92 61 cb bf
       0.1002890233309768 -0.21391521259711566
000220 18 f8 3e ee 53 8b d6 3f e5 ec 6a ea a7 60 a5 bf
       0.3522538973446685 -0.04175305115264808
000230 81 3b b1 03 0e 59 bb 3f 60 df 4a 68 40 e7 ba 3f
       0.10682761755127325 0.10509111925318626
000240 37 66 df 9e 1c 3b b0 bf f6 02 64 26 8f 13 a4 bf
       -0.06340197447516337 -0.039211724697457415
000250 f4 a7 b0 1c 15 b7 bb 3f 50 e7 6e ef 58 18 a3 3f
       0.10826236677590356 0.037295130946815136
000260 94 92 9d d7 e9 55 cf 3f f2 be 9d 7c 12 e4 c4 3f
       0.24480937030888994 0.16321021160864962
000270 b1 dc db a0 ad 9f bb 3f 06 07 94 80 ae 72 c0 bf
       0.10790524651735002 -0.12849980619653695
000280 82 3a e5 59 92 40 cc bf f5 18 2b 9f ce 17 b0 bf
       -0.22072057141709328 -0.06286326776453051
000290 d8 67 3e e7 c9 5a 99 3f 88 a3 e7 29 e6 c4 ce bf
       0.024760393847465284 -0.24038388296255797
0002a0 3b cf c8 f2 72 fd b6 3f b9 18 bc cc 89 76 d8 3f
       0.08980482508996783 0.3822350024569335
0002b0 ad 14 d4 a6 b5 d1 a9 3f 44 c4 c3 5f 4f 8a c4 bf
       0.05042808209877001 -0.1604708879090443
0002c0 5a 21 33 36 00 6f c3 bf 81 48 42 e3 c0 10 a1 bf
       -0.15182497641058995 -0.03333094381481861
0002d0 22 62 6d 55 c5 07 cf 3f 90 f0 52 78 b8 db ba bf
       0.24242464705709305 -0.10491517007443663
0002e0 e8 63 6d 3b ec a5 b4 bf 8c f5 4c 24 15 a0 c5 bf
       -0.08065678072797733 -0.16894783279887482
0002f0 0c fa 0e d0 4d 80 ac bf c4 0f e2 6c 77 13 af 3f
       -0.05566638150002143 0.06069539264811355
000300 1c 94 cd f8 e2 ca 94 3f e1 17 63 ca fd b1 d2 3f
       0.020305200992329117 0.292113731044422
000310 f3 c7 c2 b6 b5 d8 c2 bf cf 95 04 3a 56 16 a3 3f
       -0.14723845886106765 0.03727979143358661
000320 bf e1 ac 61 ae 4b b6 bf 82 a3 b1 81 c7 e8 bf bf
       -0.08709230312968595 -0.12464568058352479
000330 32 33 f4 90 d1 8a d6 3f 17 ba 01 1c 3f 4a bd bf
       0.35222281604437733 -0.11441416200407449
000340 60 6d 6a 95 fd b6 c8 bf 08 bb 9f 8d 2a 71 48 bf
       -0.1930844287461282 -0.0007459123401057652
000350 52 dc e1 9d d4 9b ca bf 70 25 b6 08 65 b8 8e 3f
       -0.20788057049841996 0.015000142410616063
000360 1d 37 d3 1a 9f 65 9b 3f a3 d1 04 02 9d 00 bf bf
       0.026754842769881926 -0.12110310839927378
000370 eb f4 fc fa 66 64 b3 bf 53 10 c3 b8 f5 4a 98 bf
       -0.07575076701774079 -0.023723449136710716
000380 b1 35 1d 1f 82 dc 87 bf cf 7b 30 ed 63 64 d3 bf
       -0.011651054930235856 -0.30300233996416365
000390 4b 72 d1 d7 1c 46 d4 3f 02 a6 d4 0e 1f 4d bf 3f
       0.31677933765403016 0.1222705279548322
0003a0 cb 6b 82 85 e7 12 9e bf 95 01 10 bd 2c 32 a7 3f
       -0.029368989490290247 0.04530467803852215
0003b0 f6 14 11 41 b9 29 d1 3f 07 5d 65 3e c0 e8 b3 bf
       0.26817160944149465 -0.07777024768198625
0003c0 94 d2 b6 36 f8 49 9b 3f 8d 8f aa f0 bf 73 90 3f
       0.02664935907314943 0.016066550315954543
0003d0 4e dd 44 6a e9 33 c6 bf 27 f3 c5 d2 11 16 b1 3f
       -0.17345922173420053 0.06674300571280566
0003e0 34 f3 59 03 99 40 c3 bf a9 89 b4 9a 6f 23 76 bf
       -0.15040886558190325 -0.005404888109554675
0003f0 33 1a e1 0d a4 53 c0 bf d6 21 0f 74 4d 46 ce bf
       -0.12755251577091684 -0.23652046362828
000400 b9 e2 c5 24 23 56 c1 bf c9 bd 7e ae fa c3 bf bf
       -0.1354412011676425 -0.12408415565618393
000410 12 d4 aa 7b 5d 16 ce 3f 89 bf 06 cc 91 6b c9 bf
       0.2350575307697516 -0.19859526121353735
000420 95 c9 28 41 c6 08 c2 3f 63 50 d8 e9 82 f6 88 bf
       0.14089277440650663 -0.012188933144934027
000430 b4 4e 68 f7 f8 21 c1 bf 63 6b 6f 97 e4 9a 92 3f
       -0.13384925919000568 0.018168994658349102
000440 40 63 6f fe d3 61 ce 3f c6 2b 11 73 8c ef 98 bf
       0.23736047671880023 -0.02435130550683675
000450 1f d1 86 9f 83 45 d3 3f 1b 56 c1 c6 06 42 b1 bf
       0.3011178071858626 -0.06741373398229948
000460 49 19 1c da da a5 cb 3f 7b 38 6c 69 31 10 8f bf
       0.21599898958101907 -0.015167604474779708
000470 83 31 15 58 84 84 bc 3f 69 26 b8 32 c3 c2 b2 3f
       0.11139704847773228 0.07328433979287187
000480 d5 4f fb ea 33 0c c0 bf bc 1d e8 d1 ef 44 d4 3f
       -0.1253724000331419 0.316707568156257
000490 43 8d 01 a5 f9 32 bc bf 32 8e 87 31 ea 64 b1 bf
       -0.11015281942814163 -0.06794608792511594
0004a0 1b 5a b0 32 0f 42 b3 3f 30 f3 dd cc 4d 14 a5 3f
       0.07522673594972 0.04117053151910566
0004b0 2b 9e ea 9f fe a9 a1 bf ad 6f ac da d6 b8 c3 bf
       -0.03450008108239574 -0.15407834699078418
0004c0 de 5e b2 a9 6b e2 bc bf dd 54 6c 9e 2c d4 bb bf
       -0.11282990353572184 -0.10870627277138874
0004d0 1f c2 26 3f 2b 0f a9 bf 9a 2a 3e b1 56 33 b7 bf
       -0.048943854769621924 -0.09062711550920213
0004e0 30 2f f7 b3 1c ec c0 3f d6 8c eb 2b 7f 84 ba bf
       0.13220557010060352 -0.10358424017208576
0004f0 09 f7 72 23 2d 59 c2 bf af 2e 8c ca f3 cf a5 3f
       -0.14334644537841992 0.042602175211951525
000500 55 1c c1 3c 43 7a a1 3f c9 68 02 79 1e c0 ce 3f
       0.03413591496114835 0.2402380076280848
000510 eb b5 a5 a4 b4 11 d6 bf b6 8d ca 73 96 1c b4 bf
       -0.34483066634024223 -0.07856121375021172
000520 f2 eb 0a ef fc ad b7 bf 9c 6c 6d fe a9 aa a4 bf
       -0.09249859653475292 -0.040364563282048155
000530 b1 e7 97 88 2d cf 77 bf 72 e4 af 87 f1 04 d0 bf
       -0.005812814584254798 -0.25030172587100374
000540 d1 c0 b9 f6 68 dc a1 3f 7a 1e 76 16 94 c9 b5 bf
       0.03488471996104326 -0.08510709331869207
000550 58 76 39 df 7b 03 d0 bf 1d 69 2f ae ca 41 ce bf
       -0.2502126388479602 -0.23638280396591763
000560 1d e5 21 16 fa b7 b4 3f af 3c c3 99 f1 a9 d0 bf
       0.08093226471273281 -0.2603725434864356
000570 c1 b1 bf ea 5d 25 cb bf da 36 b1 fa 19 e4 ab bf
       -0.21207784616798445 -0.054474651195602866
000580 ec 87 5a 31 11 85 9e bf 55 38 97 15 28 cb ca bf
       -0.02980448592882816 -0.20932484678491173
000590 f2 1f 52 4d ee d4 ce 3f ed da f3 e0 e4 eb c9 3f
       0.24087313437871632 0.20251141532909092
0005a0 82 06 c6 9b ed 3c c8 bf ce 53 fa 98 d9 b6 d4 3f
       -0.1893593798268292 0.323660277740882
0005b0 fa c4 68 c5 80 a0 d0 3f eb 49 e3 a9 0a c1 b8 bf
       0.2597963264298212 -0.09669558189060694
0005c0 4a 77 9c bc 34 cd b1 bf 97 b3 31 06 ac 03 d4 3f
       -0.0695374451138068 0.312724119233104
0005d0 75 04 c4 f5 50 35 d5 bf 47 90 3d a3 e3 79 da 3f
       -0.3313791656547161 0.41368952695325273
0005e0 8c 96 21 ca 25 52 bf bf 98 05 28 96 c8 59 a3 3f
       -0.12234722313731988 0.037794369058256894
0005f0 6c 19 f2 78 e1 17 c7 bf fb 40 f0 5f 4c de 92 3f
       -0.18041628270675447 0.018426125865574666
000600 60 cb 73 cf 5d 34 cd 3f 62 f4 f2 42 b5 c5 c1 3f
       0.22816059712894354 0.13884607094761053
000610 e7 28 ce 9c d7 85 a8 3f 0c 7e 78 9a 36 29 c4 3f
       0.04789613522651042 0.15750772993577333
000620 7d 8e 41 85 67 de c4 bf 62 88 8b 13 a1 85 c6 bf
       -0.1630372429527717 -0.17595303968761572
000630 ad 07 7f ed 84 49 cb 3f 69 fd 60 b5 f3 b0 92 3f
       0.213181129422137 0.018253143258559677
000640 ba 84 dc 99 d3 66 c0 bf 53 02 a0 af c5 ca d2 3f
       -0.12813801777614292 0.2936262335861432
000650 58 c7 35 66 6b 23 a6 3f 5b 5b 33 6f 89 b1 c6 3f
       0.043238979555907775 0.17729299478261393
000660 de 23 3a 73 0c 74 ce bf a0 2e 9e f6 90 e6 95 3f
       -0.2379165232307789 0.0213873529933567
000670 85 86 b1 fd f7 46 6a bf c6 e1 4a 1a 68 d2 c4 3f
       -0.0032076686452889324 0.16267110141576618
000680 87 be 9b fb 3e 12 cc 3f 87 d7 87 32 d0 17 cb bf
       0.2193068245464824 -0.2116642233592609
000690 73 f7 12 7f b7 18 d4 3f 7a 26 17 70 05 25 79 3f
       0.31400859269694265 0.006138821832288971
0006a0 e0 fb d7 b4 94 26 c7 3f 7b ce f1 48 dc 8b a3 bf
       0.18086489515550763 -0.03817642584263311
0006b0 90 49 90 38 90 36 d1 3f 1f 9e c1 65 7c 93 85 3f
       0.26895528339186914 0.010535213332516112
0006c0 b4 7e 66 e0 c9 98 d5 3f 88 fd ab 03 8d 58 a3 3f
       0.3374504748735305 0.03778496427366479
0006d0 33 83 5e 1c 62 71 8c 3f 7d 2a d6 52 df b2 d0 bf
       0.01388813637805839 -0.260917502303222
0006e0 ac c0 4a e7 9e 78 b5 bf a0 75 bb 6e b9 90 9d 3f
       -0.08387177607324031 0.02887239206653691
0006f0 c9 e0 a5 e2 38 f8 b6 3f c7 3b 29 9c 81 f7 ab 3f
       0.08972507031819811 0.054622698128347795
000700 81 ea 46 a9 6d d2 c2 bf b9 28 28 af b7 6e cc 3f
       -0.1470467640445641 0.222128830457512
000710 f0 b2 72 a1 ce 7a a1 3f dc 79 89 15 94 a4 b9 3f
       0.034140069206250234 0.10016751790815398
000720 e2 cd d9 6b c6 22 b1 bf 3f af a5 21 34 f6 c4 bf
       -0.06693687565876119 -0.16376353877000757
000730 1c 87 b7 f3 78 9a c9 3f ce 0f 06 ed da 08 be 3f
       0.20002662563552398 0.1173226193114367
000740 8f 9b ec 97 33 6e bc bf 2a 7c bd a0 29 80 98 bf
       -0.11105654200637914 -0.0239264015539186
000750 43 5c 8f e4 05 9f a7 bf 71 c3 44 37 16 5c bc 3f
       -0.046135124349966826 0.11078013276416045
000760 8e be 62 77 00 62 b2 bf 58 af 2f 65 19 39 9c bf
       -0.07180788912477906 -0.027561566162986523
000770 8a b4 d4 ec 9a 83 97 bf a4 fc c7 4d f3 df b1 bf
       -0.022962971405992273 -0.06982346199946449
000780 b3 76 4b 6f 47 47 8b 3f f3 14 fc d8 49 c3 c2 bf
       0.013319547733256476 -0.14658473105388445
000790 a1 3b c7 76 ae c9 d3 3f c6 d2 11 b3 f7 8d b2 3f
       0.30918466185988264 0.07247875329796746
0007a0 14 55 a4 92 34 8c b1 3f da 12 95 dd 66 58 bf 3f
       0.06854561405301168 0.12244265470242102
0007b0 5b 28 73 39 9a 62 d2 3f 2f 8b c9 8b 6b cf a4 bf
       0.28726821527800944 -0.040644989789845425
0007c0 fb 63 bd ee 82 77 a1 3f aa 6e fe 2f 11 da a6 3f
       0.034114925044100596 0.04463247023451562
0007d0 57 bd 8f 64 b6 bb b6 3f 14 9e b6 31 a1 2a b8 3f
       0.0888017650138314 0.09440047706322502
0007e0 48 a8 df ec a3 0c c1 bf 71 89 bc 64 57 3c c3 bf
       -0.13319825235459093 -0.15027897280476624
0007f0 2f 06 27 4d 16 a9 bb 3f 3f cb 72 2d 6a ce 99 bf
       0.10804881461719938 -0.025201472305251157
