Image feature/texture_color_shape_feature/Single/weights/model_W_2.npy (npy, 1408 bytes, 1 tensors)

array f8 [32, 5]
00000000: 3fea 56e2 19d7 d0bf 89be 6103 057a df3f
00000010: 3384 2b48 57b6 e7bf c268 9929 ca91 d23f
00000020: 586b 9889 bcf4 c03f 3fee 123d 7cd7 e4bf
00000030: 9069 ccda ca7b e2bf 51c0 07c6 708f e13f
00000040: f2e6 27ff fa69 df3f 131a 4229 938c d03f
00000050: ac6f e0e6 4fe7 df3f 3930 ade6 edea e13f
00000060: d2cb c15d d982 e6bf 85f0 e86b a4ac edbf
00000070: 829c 3d95 6b26 da3f 896e 0b10 3d7b dfbf
00000080: 2c29 52f8 0b1e de3f cdbe fc9a 5127 e6bf
00000090: 948d f7b2 2099 d63f 0215 83e5 455a d03f
000000a0: 4127 6857 bcd5 e23f b4bd 9f04 658a e5bf
000000b0: 0b0d 006e 6386 bf3f 4cbe 6656 fdff bdbf
000000c0: b930 0d89 3d52 d63f 12c3 7361 667e df3f
000000d0: f8bd 0e5d ff52 e13f e326 2de0 57f3 e0bf
000000e0: 1e3d 31e6 2274 dfbf 96a3 4dca dd1e debf
000000f0: 30f8 6c27 0fa0 e4bf 9a6b 6804 1e75 ebbf
00000100: 04ab 2cf0 f076 e03f 16f2 b91c d765 dd3f
00000110: d514 1557 5141 d73f aa2c a6bb 8e6e d7bf
00000120: a596 32bd c030 d83f cef4 62c8 070b d5bf
00000130: c424 3087 ce92 d9bf 93d3 5c41 2871 e73f
00000140: c863 ac24 8189 de3f 824e 7bf8 87d1 e13f
00000150: ab3f 17d0 78e6 bcbf f6b7 8143 a592 ccbf
00000160: 5c7c 77d6 6ff5 e7bf a124 5e62 ac28 e1bf
00000170: 4561 21ba 1bcc dfbf 944c 8317 d0e9 e2bf
00000180: 0fc5 3d5d d272 e23f 44a6 31ac 054c e13f
00000190: e090 a0e8 1bd0 e33f 570d b0e8 f6ce e43f
000001a0: f151 ea92 00a9 e2bf 4397 7887 85c8 e8bf
000001b0: f6c0 5b7c c224 dd3f a125 acf7 a343 e5bf
000001c0: cf6b 530e 3154 88bf 5413 72b3 fca4 803f
000001d0: 586c 4e80 2f82 cc3f 01f8 f06b 0252 dc3f
000001e0: 0bf9 57a0 2b9d df3f 822b e1e8 3325 e5bf
000001f0: 90bf beb0 4979 e23f 5f6a 6a4d 2581 b9bf
00000200: 5cde 3b12 d07b d1bf cf97 78d3 f409 e13f
00000210: ec64 4b1e 9436 e23f 010b 8ede 3517 e8bf
00000220: d5b7 2bdb 642c e3bf b869 696b d360 dc3f
00000230: 19e4 02a8 0570 e13f 96aa eff4 bf01 e33f
00000240: 4951 4bfc e020 eabf 02e6 abdb 9be4 e5bf
00000250: 86ab adba 9c39 d83f 5dba 79a9 df38 c23f
00000260: fc8d 4e54 50f6 ce3f 4bb5 fe04 1b66 f3bf
00000270: 77e1 0882 0866 c33f 08b2 148b 5da5 c53f
00000280: 3c70 dfd1 430c e0bf 53f4 dd5f 8df2 d43f
00000290: a834 19ed ec5d e7bf a0ee df9d 9af2 dd3f
000002a0: d2ea fd00 79f4 dc3f 18ca b991 f861 e43f
000002b0: 57d7 edb9 2dce e43f 4ea3 bcb1 7d56 e3bf
000002c0: ffcd 8f30 05fb dbbf 8dba 3e26 1a02 d23f
000002d0: 3431 2ab1 fa9f e8bf e562 f73b 44c3 e9bf
000002e0: d7d5 f25c a2ed e13f 0e56 e259 8ae8 e03f
000002f0: d2f9 e19b 2ff4 d93f 96e0 7bf7 3850 ebbf
00000300: 3972 d962 b07c b8bf 79b9 13ef 0f9c e13f
00000310: 162d 5c05 71a3 de3f c90e eed8 e13b 97bf
00000320: 6ea5 f5d0 0785 d7bf 0809 b060 9eb7 a63f
00000330: ccf9 41ef 397a c8bf 0b41 13a1 02ef be3f
00000340: 582b 2826 c702 e53f db64 fc16 e085 d43f
00000350: b987 d290 766f f0bf a02e 542e 03a1 e33f
00000360: c7ec cedb cd4c dd3f a4bf d804 2036 d73f
00000370: a596 03de fa38 e2bf 9b03 b9cd 3641 e5bf
00000380: 4b2b 52d8 3b87 e43f 49c8 0b3e 84ad e23f
00000390: ba72 5abd 6579 df3f ec7e 2657 d413 aebf
000003a0: 33fa 5847 3a41 ed3f 4d27 ce79 19da ccbf
000003b0: e8be 7c54 3acb d1bf 222c ee1f 5aad b1bf
000003c0: 90ef 2a04 9281 e1bf d1ec c708 13c3 d53f
000003d0: 6bcd 266a 4d0c e3bf 2ee4 753c fe64 e13f
000003e0: 065f db0a b357 e13f ee55 6d0a b18c ddbf
000003f0: a1f6 f6ca ea42 d4bf 680a 8521 172c e73f
00000400: ed7e 8a16 5af6 e33f ed8d f206 7a4a cbbf
00000410: 6a38 27b4 91af d33f bd35 391b a58b da3f
00000420: ed45 33bb d67e e1bf fb95 57f4 9dc2 e9bf
00000430: 6c50 47eb f065 d83f 4fe6 0bb3 fb3d ddbf
00000440: d472 1298 9fbc ab3f 3074 de97 123e d23f
00000450: f468 f257 db38 90bf a213 9409 6f33 eebf
00000460: 36fc 1ef6 8a7b e03f b3d7 4af1 3de1 e03f
00000470: 213a 888d 142e e2bf 18c8 ca94 2f66 e4bf
00000480: 5035 c448 c3f3 b5bf deca ec3b 825d dc3f
00000490: 80c7 4722 6377 e33f b8c6 5aac 23f0 e0bf
000004a0: f267 151e 2959 d83f 8bd8 547f 6241 94bf
000004b0: 4ff4 be78 8a6b d8bf 7090 684b e0d3 bebf
000004c0: d84f a652 41b2 debf 0391 5f57 df23 acbf
000004d0: 888b 4d31 89a9 e83f 538e 3236 1e84 c8bf
000004e0: 76a8 05b5 119f d93f a8ac d74a 46a8 b83f
000004f0: fe51 c12b 8a57 d2bf adf2 1eb0 0208 87bf
-0.2631287298533244 0.49182248430495484 -0.7410084161348379 0.29014829695155353 0.13246876448178102 -0.6513043587542099 -0.5776113770873952 0.548759829309356
0.490843533683445 0.2585800078308306 0.4984931711821854 0.5599278931999897 -0.7034727889243817 -0.9273244960418344 0.4085949857166683 -0.49189688269482496
0.47058390855876797 -0.6922996546836316 0.35309617497679224 0.25550982869420136 0.5885907847561854 -0.6731438722908281 0.1231443542056249 -0.11718734130294556
0.34876955398500403 0.4920898391419978 0.5413815324336033 -0.5297049883313004 -0.4914633987400111 -0.4706339336030906 -0.6445384759933912 -0.8580465398875845
0.5145191851528073 0.45934083752925525 0.3633616781629148 -0.36612289738759307 0.37797564007119383 -0.32879824227331944 -0.39958537294348795 0.7325631405461642
0.4771426065577171 0.5568275311620285 -0.1128917224916665 -0.22322526737428888 -0.7487105549624959 -0.5362150117154166 -0.4968327825240702 -0.5910416087375716
0.5765163251036557 0.5405300486720042 0.6191539329052169 0.6502642197305403 -0.5831301564635948 -0.7744777341765502 0.45536863464714317 -0.6645068967201732
-0.01187933278054301 0.00812718794464621 0.22272294774015466 0.44250546017781295 0.4939679208618066 -0.66079135402957 0.5773056461384716 -0.0996268571856631
-0.27318193226481013 0.5324653749746576 0.5691624252023337 -0.7528333040976066 -0.599169185703199 0.44340978135519604 0.5449245721312109 0.5939636024389354
-0.8165135314580222 -0.6841563501795351 0.37851637106239655 0.1423606469647493 0.24189190022035223 -1.212428111564196 0.1515513071951877 0.16910905161911693
-0.5014971827581642 0.3273042141152633 -0.7302155142621318 0.4679323713059862 0.4524214276968169 0.636959347363077 0.650168288366994 -0.6043079825804882
-0.43719606153828744 0.2813783048140202 -0.7695287189722309 -0.8050862475602939 0.5602580848123421 0.5283862834500626 0.40552892897531223 -0.8535427888555371
-0.0956526032763997 0.5503005666230784 0.4787256767601361 -0.022689370026923315 -0.36749453932005494 0.04436964922207848 -0.19123005087381129 0.12083450729847216
0.6565891022922683 0.3206711029502693 -1.027212682449756 0.6134048371181571 0.4578127523961481 0.36267853234584835 -0.5694555603228834 -0.6642107027074532
0.6415080285090452 0.58368122213711 0.4917845105317543 -0.0587450367340788 0.9142123597628767 -0.2254058689834956 -0.27802904368125647 -0.06905139236020877
-0.5470666963005772 0.3400313935996567 -0.5952517579338922 0.5435782605046648 0.5419554912614053 -0.46171213167448755 -0.31658429928561743 0.7241321234399267
0.6238222542051212 -0.2132103475497468 0.307590890818466 0.41477325113813973 -0.5467332512145596 -0.8050069591815253 0.38122199036047877 -0.456908154344636
0.05417345744465299 0.285038612660915 -0.0158418915203606 -0.9437785327032666 0.5150809104014857 0.5274953568211828 -0.5681250347423125 -0.6374738603683481
-0.08575077559017541 0.443207319756011 0.6083236379183603 -0.5293138853359869 0.3804419320855451 -0.019780673047727276 -0.3815637759360628 -0.12042047349001606
-0.47962983199363185 -0.054961184898077796 0.7706953013370006 -0.19153192182885678 0.4003338115495646 0.09631766631325667 -0.2865930011078318 -0.011245747566016229
