Image feature/texture_color_shape_feature/Single/weights/model_W_0.npy (npy, 141952 bytes, 1 tensors)

array f8 [277, 64]
-0.0021667467711147964 0.043121832066695634 -0.01819610597524372 -0.050258991998857146 -0.01634723781481447 0.09993320034242355 -0.029983048332476732 0.04528425273757744
0.04475591093362793 0.04824672301348351 0.1494957385010308 -0.15042826934047443 0.07444551826794447 0.003584666526610389 0.05188422403435002 -0.06883918820037677
-0.03745477392278479 -0.27274344679377477 0.05206134473552569 0.10703079199076034 0.007793323812211092 0.004364285241307687 -0.049102699558057836 0.002740507063417986
0.03717156317163032 0.05689221854287822 0.060473472512746894 -0.04454444237424295 0.04624359812844161 -0.0901690465279738 -0.05779731189810901 0.006426955698870763
-0.05158753909642755 0.05721504681621691 -0.08466877352524206 -0.11910774283924479 0.05654671982720243 -0.09750725076864007 0.07283762698473481 -0.11959352027913467
0.05274130102733341 0.02104840252049333 -0.09593644961417065 -0.03695817633460495 -0.07812607447790106 -0.08078413063255926 0.08212613868561632 -0.08292317959489344
-0.016161207558634528 0.09291512795517397 0.037742038128165616 0.093155785519565 -0.027409464361257893 -0.04766072011196878 -0.17767802974616145 0.06578492527814617
-0.06792433946437178 -0.014946078156793647 0.014624597462779379 -0.03342125263414304 -0.14337719865859191 -0.09485635198820758 -0.08707525586854412 0.10648063934883273
-0.025279837036018986 -0.0366633496404573 0.11272480081932208 0.026720813300341005 -0.03211349070002234 0.023560245333600748 0.032590032627988194 0.09515365030797285
-0.03566622214184766 -0.13575195498469153 -0.11837641876621718 0.01041527896977525 0.09437343390247273 0.13581569848876873 -0.11850336153876691 0.034588058975098354
-0.10801430173434051 -0.0010996345857916773 -0.02034967757254571 -0.015088897703968707 0.06696255958778707 0.058036762979797554 -0.10165454264815045 0.09638356237276502
-0.04029085414357086 0.10729428585777596 -0.09051561452879596 0.07463869244814046 0.07514536543301148 -0.10031071404907575 -0.04734664693394222 -0.0035944487478360844
0.09905986398204396 -0.007698498463620854 -0.018662014051756225 -0.03223869796738185 0.03311819839195739 0.05059270260294289 0.0427793842580985 0.1449671032623883
-0.049033271800903444 -0.08395959852042595 -0.06314559130616085 -0.026255253288691077 0.0007438360564019401 -0.12811037969593012 -0.1381741735999139 0.002621816057057721
0.14426735085609382 -0.06122562253278258 -0.0917681552975426 0.11476676444003063 -0.013435676455261433 -0.15418837744746905 -0.13614605494916324 0.0021263226180862206
0.07479387252181434 -0.04279565729868081 0.020861999349406572 -0.08720931059742842 -0.11072222337144759 0.02323842090868555 -0.11403583959675806 -0.043203022222638436
0.09889147049963114 0.11951869352097465 0.10800827853540056 -0.050459914222491 0.09385507709727615 0.031851852052946134 -0.06480662258173718 0.14411760049330508
0.019985098699283096 0.09052261993878537 -0.04030317872103982 0.015666547685953398 -0.052301076074603284 0.07229110711048392 -0.001243699069059263 0.09651846775756706
0.005875731387544886 0.04100967823882004 0.03694045073430276 0.043469391255723584 0.01493455992321358 0.03592275340159808 -0.0677942500631666 -0.021893971247030065
-0.12850872984923833 -0.034377464796294895 -0.01999116776561078 0.09526209751280004 0.08113841955662397 -0.03857458444122137 -0.09055990977801529 -0.08667652989001241
-0.027351352536374586 -0.09425650664838565 -0.08767628309229296 0.002140504823698597 0.01934642975521475 -0.018249323795197107 -0.06943352372354956 0.02347749353037041
-0.04806016343468447 -0.05789300692137245 -0.022752732449667218 0.06681650522936347 -0.14422503353024366 -0.008654980889236268 -0.06214421917095311 -0.05109903139439073
0.037447474660635374 -0.03995266259237376 0.023980626311883673 0.08973391122276518 0.004508171990389907 0.05409919993072289 0.021623974826492476 0.053392463390674584
-0.07169631989390265 0.04406334957388293 0.07040264691840484 -0.0060967856558038 0.06607155742476628 -0.10959064928598455 0.03675414320966834 -0.043945688583698087
-0.09264586269607468 -0.038463318888891554 0.02622300466555839 -0.08002582965484507 0.04296330438830907 0.052566850725937184 0.01606681023190324 -0.030048284184646668
0.05806664666300519 -0.02399782226528474 0.04761023358707492 -0.051061999329478955 -0.07705110976497245 -0.024222377408498214 0.11024504410093712 0.018060879913024453
0.03259504864767896 -0.007316873792237658 0.01816113302408014 0.006983221465539668 -0.01715387466951461 0.06235444462043008 0.03385214712010595 0.02240265137148779
0.08252039578876047 0.03873932584447738 -0.055203711918690244 -0.04128778711179461 -0.013539770571515695 -0.04028764594659231 -0.06511562799244835 0.028624508244623814
0.020989656793975717 -0.20859902403679118 0.008172646311673071 -0.01212290804692243 -0.02301138760394713 0.01889057169406283 0.03129795552239147 -0.025085288573124823
0.057442613603663636 0.05987331756335654 -0.05043149407843983 -0.013267716636345647 -0.23263574794707415 -0.0061816029487405015 0.037635178307239996 -0.060834219746235096
0.012450097607856368 0.1406062516184444 0.05421953189012293 0.050238720729492245 0.14281124272962584 0.023594971707661283 -0.02360321381665785 0.033245865180122194
-0.031143639461186604 0.12505844444418998 0.07068992685397656 -0.02388964204609734 0.029260632208797925 -0.10691572152160031 -0.0026280554813300186 0.040173240799214215
00000000: a52d a950 ffbf 61bf f2ab f094 1014 a63f
00000010: 6b19 5000 00a2 92bf b916 eeed 8bbb a9bf
00000020: d5a1 2d8f 54bd 90bf fd5c 41e3 3895 b93f
00000030: 72e9 1650 e0b3 9ebf 243a 1061 7f2f a73f
00000040: 3b76 862b 3fea a63f 7cd3 f662 cbb3 a83f
00000050: fb6b e025 ad22 c33f 2a09 9bc8 3b41 c3bf
00000060: 636a 4b8a dc0e b33f 13a4 f62f 975d 6d3f
00000070: 43ce cfaa 9190 aa3f 84f9 00ee 719f b1bf
00000080: 78a5 27aa 452d a3bf 735d 0bee a074 d1bf
00000090: 0ebb 0cda c8a7 aa3f 55ea 43b7 5e66 bb3f
000000a0: 7dcb 686e e4eb 7f3f dbfb 1be6 48e0 713f
000000b0: 568d 7e31 fd23 a9bf e85e c786 4273 663f
000000c0: a5a2 53b0 2608 a33f 66bc 1314 fa20 ad3f
000000d0: db83 6f05 61f6 ae3f 638e 6e76 87ce a6bf
000000e0: 13d8 38ab 3dad a73f 7cfb f291 5115 b7bf
000000f0: 8255 ccf8 9b97 adbf 0ec1 a1c8 2653 7a3f
00000100: 00be 9992 ae69 aabf 7f5b d465 4a4b ad3f
00000110: 5189 484d daac b5bf 3be7 3154 d87d bebf
00000120: 9633 b510 b1f3 ac3f 0f97 2c35 3cf6 b8bf
00000130: ae53 d199 7ca5 b23f cc92 6952 ae9d bebf
00000140: bd2c 1f66 e800 ab3f 7e91 d561 b68d 953f
00000150: b553 9689 4a8f b8bf 7e96 5a9d 2eec a2bf
00000160: 2df2 d806 1200 b4bf 3646 1acf 44ae b4bf
00000170: f52d cdf7 3706 b53f 2dbe 7018 743a b5bf
00000180: ed7a b647 908c 90bf 3702 df2b 49c9 b73f
00000190: 37c4 e3a6 ec52 a33f 6c5e 3dbc 0ed9 b73f
000001a0: 7c42 2104 3a11 9cbf 0393 5e64 fc66 a8bf
000001b0: 051e 7d57 27be c6bf 70b2 a3e6 47d7 b03f
000001c0: bd14 9a50 7d63 b1bf 1759 18a7 0c9c 8ebf
000001d0: 5bf4 8e3e 80f3 8d3f ba28 1c26 971c a1bf
000001e0: 2189 9d1d 2f5a c2bf 8472 9b81 8148 b8bf
000001f0: de08 3f60 904a b6bf 7410 a9af 5042 bb3f
00000200: 7e8a 4525 f5e2 99bf b7cc 55df 89c5 a2bf
00000210: 0594 f754 88db bc3f 166d fd6c b35c 9b3f
00000220: 504d a2f0 2d71 a0bf 7332 c64c 2d20 983f
00000230: fe24 a008 a4af a03f 90f2 2a58 fd5b b83f
00000240: 4f9b 57d3 d742 a2bf 097f 83ef 5160 c1bf
00000250: d8ef 37bf ea4d bebf ca63 6e14 9b54 853f
00000260: 25eb 387c db28 b83f d475 a5a7 6862 c13f
00000270: dd6a 467e 3c56 bebf 36a5 42ac 86b5 a13f
00000280: 4403 7345 d3a6 bbbf 6e7c 58a5 3304 52bf
00000290: a606 a2be 8bd6 94bf 80b0 5e91 ede6 8ebf
000002a0: 486a 7c53 7524 b13f c288 ed9d feb6 ad3f
000002b0: 89e4 2938 0806 babf 1854 43d8 97ac b83f
000002c0: 17c4 bfb9 00a1 a4bf f58b ce68 a377 bb3f
000002d0: 8fb3 2d04 082c b7bf 27ba 1477 851b b33f
000002e0: a412 fb06 ba3c b33f df78 4784 f6ad b9bf
000002f0: 1426 50d8 d13d a8bf df19 36fa 1a72 6dbf
00000300: 932a 26bc fc5b b93f 37ab 12f2 7588 7fbf
00000310: 1380 1e90 221c 93bf 5cfd de32 9781 a0bf
00000320: 2fe6 fd55 def4 a03f fe18 3166 49e7 a93f
00000330: f5c0 a9f0 2de7 a53f 0100 c133 488e c23f
00000340: 20fd 9995 e31a a9bf ec9c d451 607e b5bf
00000350: 3aea 8b39 4f2a b0bf c87a e438 a8e2 9abf
00000360: 2224 96c4 bf5f 483f 9d3c 89c1 eb65 c0bf
00000370: f4b8 61fa b0af c1bf 45fe 13c7 587a 653f
00000380: 865b e740 5a77 c23f c93c e9fc f658 afbf
00000390: ab33 d129 1e7e b7bf f70a f0cb 5a61 bd3f
000003a0: f8c4 ccf7 2984 8bbf 18b4 47db 71bc c3bf
000003b0: b537 bee2 3b6d c1bf 1fa5 5fc3 386b 613f
000003c0: 7721 6cf4 b025 b33f cb6e 04f9 4fe9 a5bf
000003d0: be4f bd13 d95c 953f 8833 ec70 5953 b6bf
000003e0: 431e 52a8 4a58 bcbf bf02 4107 d0cb 973f
000003f0: 94d5 a3e9 7331 bdbf 37b6 11df b41e a6bf
00000400: 3336 a68f f350 b93f 5fe8 eeef c698 be3f
00000410: ebbd 0138 6ea6 bb3f b56a b0c2 e1d5 a9bf
00000420: a144 b2e6 e206 b83f 8cd4 c4cd e24e a03f
00000430: bf82 8db4 2a97 b0bf 56c8 720e 7272 c23f
00000440: 7c73 4845 f976 943f 2d71 2f8c 7d2c b73f
00000450: 2e3c 1045 9ea2 a4bf 7540 cf37 e40a 903f
00000460: 6a72 92e6 34c7 aabf 00c7 d484 ab81 b23f
00000470: 52a1 f8b4 7360 54bf 6491 7a2e 6fb5 b83f
00000480: 47b4 64a2 2611 783f bcde b575 38ff a43f
00000490: 024e 9bd7 dbe9 a23f 6106 a4bb 9e41 a63f
000004a0: 8353 9ab3 0296 8e3f eb92 1596 7764 a23f
000004b0: 35ce e0c6 f65a b1bf 3d36 f189 5f6b 96bf
000004c0: 2cfb f95b f972 c0bf 01f9 094e ec99 a1bf
000004d0: 7270 0c8f 9078 94bf a2a7 5dc9 1863 b83f
000004e0: 2be0 71ca 7cc5 b43f 0980 4345 0cc0 a3bf
000004f0: f645 d32a ef2e b7bf b957 35dd 6e30 b6bf
00000500: ea93 9432 fe01 9cbf 2572 7dc5 3121 b8bf
00000510: 0b28 84f0 f371 b6bf 80f3 dec6 f688 613f
00000520: a83d 5fec 8ccf 933f 4e79 7f63 f3af 92bf
00000530: e580 a339 65c6 b1bf 5ab6 9eeb 7b0a 983f
00000540: 4480 627c 579b a8bf 50ee c9f6 26a4 adbf
00000550: 7857 1007 7e4c 97bf 820a cbf0 e21a b13f
00000560: 7571 2345 f775 c2bf 9c27 efde b3b9 81bf
00000570: dc0b f3f9 5dd1 afbf 6c72 64f9 a629 aabf
00000580: 726e f8bd 502c a33f 34da 71e6 ac74 a4bf
00000590: 9b11 fd96 608e 983f e73f 0b36 cdf8 b63f
000005a0: 182a 3734 2977 723f b26a e2ec e3b2 ab3f
000005b0: 20db c162 9824 963f 5d4d 3bc8 4156 ab3f
000005c0: fe17 30a5 b05a b2bf 627c beaa 788f a63f
000005d0: 8afe 106a e805 b23f c7d3 0970 f1f8 78bf
000005e0: dccc 55ca 10ea b03f 2c76 a1fe 210e bcbf
000005f0: 06f3 2766 70d1 a23f 52cc 889e 0c80 a6bf
00000600: 41ac 63a6 a3b7 b7bf 9262 72d1 76b1 a3bf
00000610: e305 c40d 34da 9a3f 71ec 33a1 927c b4bf
00000620: 3e40 8d46 49ff a53f 6677 71d1 0aea aa3f
00000630: fafd fc61 d173 903f 60f2 7e37 fac4 9ebf
00000640: 8ede cf58 e9ba ad3f f0ed 3797 e292 98bf
00000650: 9c3d 6c58 5e60 a83f 3e81 6062 cc24 aabf
00000660: d2a1 8f1c 9fb9 b3bf 0517 343b c0cd 98bf
00000670: 85a8 f5ea 0439 bc3f 0df2 4022 8d7e 923f
00000680: 4518 e857 4cb0 a03f 778e 585a 4cf8 7dbf
00000690: 5540 9601 d598 923f 1922 0b3d 709a 7c3f
000006a0: 8c2c d20a c990 91bf e45a cff8 ebec af3f
000006b0: 0c7b 8f91 1155 a13f e3d9 ef7b b8f0 963f
000006c0: 786b 2a81 0e20 b53f 9269 2413 a4d5 a33f
000006d0: 33fe 9d32 a943 acbf d21d bd3e ac23 a5bf
000006e0: 0c68 663e bdba 8bbf 7300 8c13 95a0 a4bf
000006f0: 24a2 aff4 6aab b0bf e055 193b be4f 9d3f
00000700: e903 f005 507e 953f af96 1b71 5fb3 cabf
00000710: da14 0b05 d2bc 803f 5267 c02c e5d3 88bf
00000720: 9633 c714 4c90 97bf 40d5 83ce 0c58 933f
00000730: 93f8 cc1e 4906 a03f 9411 2138 f5af 99bf
00000740: de24 a645 1e69 ad3f fcde ac29 b7a7 ae3f
00000750: e0b8 8223 28d2 a9bf cb97 5dc8 1a2c 8bbf
00000760: 5e16 a818 02c7 cdbf 15f4 0668 e151 79bf
00000770: 8777 0408 eb44 a33f e854 93b0 a925 afbf
00000780: 1f46 76d0 6f7f 893f 233d 28ba 62ff c13f
00000790: 0b86 8b98 a9c2 ab3f f655 0dbd e3b8 a93f
000007a0: a32e 8388 a347 c23f 307a 56bf 4729 983f
000007b0: 9c31 b1dd 702b 98bf 0209 5a1f 9a05 a13f
000007c0: 445a db43 1ee4 9fbf 9ffb 7c44 ea01 c03f
000007d0: 0795 fe2b bc18 b23f a15c 34bd 8676 98bf
000007e0: de99 96c9 7ff6 9d3f 6e0f 5d27 d45e bbbf
000007f0: b935 058b 6e87 65bf cb5c d046 9691 a43f
