Image feature/texture_feature/weights/normal_top/model_W_2.npy (npy, 2688 bytes, 1 tensors)

array f8 [64, 5]
00000000: d26e 9a91 f081 e0bf f76b 4ce0 7ca7 b8bf
00000010: c35f 6fdb 8bd0 c13f 236f d456 f371 c13f
00000020: 1ffb a361 4237 b63f 374a 6eee 56df d13f
00000030: 528e ab6f 803c d63f 5d03 4736 6284 e0bf
00000040: 8d7e d761 78bc cebf 560c 4495 fae3 cf3f
00000050: 911f 3ecf 85d2 cfbf 8963 8141 2eff 683f
00000060: d34d 3b25 ef31 c1bf 561c 73d0 65e0 c73f
00000070: a067 6308 e796 bb3f 4af7 c455 fa36 813f
00000080: 7f30 ecc1 2959 ab3f f2a9 cc16 5584 94bf
00000090: cccd cd5a 1e18 93bf face 5692 065b d53f
000000a0: e2ea d9bf 35dc d93f e0e9 c45c e586 de3f
000000b0: 41c2 4cee fc31 d7bf cebe ca37 a47c d5bf
000000c0: ae32 ec13 d242 d63f 478e 8acc 09c2 d23f
000000d0: 661e d7c0 97fb d53f 4bb7 e472 2523 e2bf
000000e0: 3295 72db 984a debf fbef c1f2 7732 ce3f
000000f0: e929 182f 23d4 ce3f fbb1 dd23 6f59 d43f
00000100: a7c6 2cc1 eeef e0bf 6861 a013 76aa d3bf
00000110: 9d84 7d94 5e94 ba3f 1ce5 686a 6be8 d03f
00000120: e7ae 6488 f132 d53f 893a 6cd8 eb17 d8bf
00000130: df96 04a0 a565 ddbf b038 236a 1382 c53f
00000140: 8b65 3e8c d240 e1bf 836c a751 47bb cfbf
00000150: 5985 41a6 8b0b d03f 4699 0ef5 107f cf3f
00000160: 9618 8f35 594f cb3f cf67 6a69 43fa d2bf
00000170: d5eb 1baa f7b3 d8bf 401b 8066 3baa c53f
00000180: dde4 3032 6fdc b93f eb83 dbd4 05a5 8b3f
00000190: 7fec dcb7 054f da3f 4bab 2e6d a0cf c33f
000001a0: 3056 060c e663 bdbf 1800 584a 45e8 b3bf
000001b0: c536 adfa b52e cfbf 2dec b83f 7832 b33f
000001c0: 8351 a975 a45b a43f 2541 dc67 8610 813f
000001d0: e012 1c8a 3a4c d9bf d61c b9ae d149 cd3f
000001e0: bde9 f50f e82e d6bf c852 fc37 9ae1 d5bf
000001f0: 2fa2 da34 222d d03f a959 bfc9 60ad ce3f
00000200: 49cb 6080 448a c13f 337b a0ef ef0e b2bf
00000210: 9371 ee84 71b7 c4bf 2263 75d8 08d6 a73f
00000220: 1818 f441 6043 7ebf bff5 1360 451e c53f
00000230: db10 0eee 4dd4 ab3f 3591 6188 9dab e13f
00000240: 2e18 f015 07ba 71bf b653 621e 1675 aebf
00000250: 57ab 864e d3e0 b7bf 8dd6 d4b7 a2c3 dcbf
00000260: 6331 0e02 06c2 be3f fd62 7271 c850 d3bf
00000270: 902d a902 dd15 c13f ef1a 2a8b 0c75 da3f
00000280: 9aeb a4b4 03b8 9c3f ad59 e9f0 8653 c0bf
00000290: 7c2a cc04 d324 c83f e34c b328 9030 a4bf
000002a0: 063d c99d 2ec5 c7bf d85a 9c4e 39c9 a33f
000002b0: 0a19 727a efd4 c7bf 8bf1 530d 8ca4 d93f
000002c0: 7b09 5a74 9936 9a3f 1eb6 491b 6a26 b7bf
000002d0: 1777 a79e 9674 bcbf aa6d 934a 00bd dc3f
000002e0: c9d3 6296 13ec c8bf ed61 97b3 e599 c0bf
000002f0: f0f4 5877 e415 cfbf fb3d 0f37 a165 c5bf
00000300: 2579 f3f3 82fa c5bf 761f 1e9e 78f5 d93f
00000310: fda6 821e 8759 bb3f aeb7 7263 ba52 d0bf
00000320: 1403 ba2b 868c 9a3f 1cd3 7070 e55f b53f
00000330: 466b ec08 8340 d2bf 21a8 018d 6f99 c1bf
00000340: 4086 086f 889c d33f a4ad 2195 5396 d0bf
00000350: 81b5 5e29 2fb8 d5bf ebdf 792d 0d4c d13f
00000360: f678 80fb 0a76 d03f 8b21 7eb0 b2e8 b53f
00000370: c758 0620 b844 d0bf 30c8 4ee4 bcfa cfbf
00000380: 927b 306e 8918 b13f 0b2b e3d7 5d6a cf3f
00000390: 9aa9 9f2e fba3 c6bf efb9 03f9 a084 c7bf
000003a0: 6a6a b89f a855 e1bf 13dd cf34 8efd d13f
000003b0: f0ae 4fc9 37f2 d03f 64ca feaf 0784 b53f
000003c0: 7816 2346 55bb dd3f 5b36 88aa 3a58 c4bf
000003d0: d95d 8be7 fdaa a8bf 87b3 11ba 5d79 bb3f
000003e0: a3e3 190b 5471 98bf d574 4ed1 20af aabf
000003f0: ffb2 2cca 1985 db3f 439d 82d3 88c7 9f3f
00000400: 1efa 2323 9172 a9bf e740 f026 7dd3 cebf
00000410: 2c93 d41a 4a82 633f 5b56 093e 2218 db3f
00000420: 97f8 4e82 3c0e b73f f0ee 5960 8ec8 b03f
00000430: a223 8336 70bc dabf 5619 edf8 4b28 d7bf
00000440: c276 7b7d 380a e6bf 3a6b 6549 d691 d03f
00000450: 0c82 e546 810d d13f 0285 6154 ee2a ca3f
00000460: 028f 1262 464c cd3f 144f c679 3f99 d33f
00000470: d860 ee61 5d85 6abf c451 51a4 671a a63f
00000480: 57f7 e23b 02bf b8bf 4f6e 47f1 946b d73f
00000490: f0ce f156 20b8 da3f a8bd 9707 eb1b c2bf
000004a0: 768f c05a d15c c8bf 2f04 2412 019e d2bf
000004b0: da73 6dcc e187 c9bf 93bd 1c99 8dbb babf
000004c0: ca59 b6a5 4e8a d0bf 387d f685 7dd2 c83f
000004d0: f6f7 9b12 1e9b d43f e293 3ce3 a0a4 c63f
000004e0: 2cb5 8139 a982 dfbf 17ca 5b81 09e5 ab3f
000004f0: 395e e009 608f cbbf e289 a98d 4a6b b7bf
00000500: 1f4c cb1e 6945 e0bf f6b1 27e4 aa14 c23f
00000510: ac16 2bed e2e3 babf e2b3 f8da 6b94 b33f
00000520: a4ed 9b89 ed56 c83f 32f0 f141 0bfc c33f
00000530: 9422 89f1 6abd ce3f ea60 ee0b 26ed e6bf
00000540: ea57 0be0 8a6b cbbf f753 d5dd af57 c23f
00000550: a2a1 7e36 4123 cabf 4871 4c97 831c ddbf
00000560: 1da7 2170 19bf c83f 32dc f748 4b84 cd3f
00000570: 4830 edb8 9d47 bc3f f56d cd1d 27fb d1bf
00000580: a9eb 39b4 5e42 e1bf 1d12 52e4 c5d0 d43f
00000590: cac6 d0a5 2c7a d53f 1516 f39e d0a2 ce3f
000005a0: b394 684d 24da dabf 0f82 075f 2d33 cfbf
000005b0: d85e 5233 2ece c2bf 6a50 9003 14b7 d63f
000005c0: aa69 0661 f3d9 d43f fde1 5847 f7fd d9bf
000005d0: f65d ddcc 21c2 d63f 6cb0 b941 e368 dfbf
000005e0: 6b03 086c db1c c8bf 7826 7f92 4f19 ba3f
000005f0: dc63 fccc b81b cd3f 9654 0c50 bcae d9bf
00000600: 03e5 c050 098b ddbf 1e5d 655e f0fd ca3f
00000610: f5b0 c330 1cda be3f 5879 9d34 26fa acbf
00000620: 5e3b b83b e334 893f 5c2c dd43 b426 d33f
00000630: b597 5473 1d2a c2bf bfa6 cf72 a6bc e6bf
00000640: 8a65 00f6 91da c4bf 8d61 eaf7 d0a9 c7bf
00000650: a945 cdf3 c872 b13f 01dc 5822 b058 b1bf
00000660: a827 3ee1 53c1 a63f d124 3954 570f bd3f
00000670: ffeb 3f97 a1bd d8bf 232f 47b6 a199 d3bf
00000680: a368 f906 26d1 873f e0e7 6f54 4a99 c33f
00000690: 73f8 c99b 429e c53f 989b c3e7 0b24 d2bf
000006a0: 930c 6409 0799 cdbf 4265 2e84 e0b2 db3f
000006b0: 2b38 6493 fbba d63f 1d1f d9f1 1fac cf3f
000006c0: 264c 1608 3367 d43f 0d39 918e 9ae7 e0bf
000006d0: e2da 303a b882 e1bf c332 2ed2 1957 c93f
000006e0: a249 3184 c106 bc3f 1840 ce05 d719 dfbf
000006f0: 9050 6d5f ae1c d03f 4f8f 719e 2727 c43f
00000700: 4fbb 8318 eab3 c0bf e740 0083 7053 c83f
00000710: 13aa 2d9a a207 d13f 336a 1c03 1791 e7bf
00000720: 0ab4 f760 731f af3f 855a a002 bab9 ce3f
00000730: 4f5b 7687 5cfe e5bf ef03 fd80 50cf c0bf
00000740: 98ee c4a8 7548 ca3f fc38 9693 cfb7 cb3f
00000750: a225 40bf 78cc c73f 1cb6 3706 cc20 e1bf
00000760: 36b4 6a66 8168 dbbf 3964 0ebd 6f0c d73f
00000770: b28a 47f9 edd6 d63f 9d5b a91f 92b1 d33f
00000780: 869a 6dcf 5a74 a93f c6f2 c4d0 591a d13f
00000790: ff2f 68aa a8b8 d4bf d7b5 c583 38af d0bf
000007a0: 4ba0 b004 cc7c b33f 7943 37dd 7500 d9bf
000007b0: 1c65 c35b 1485 c33f 7048 b400 5ea2 e1bf
000007c0: a4fc 76fa a8e3 c03f f459 7b02 d573 d03f
000007d0: 0264 f877 e144 d13f 6a3e a6cf 2125 d53f
000007e0: 1734 558a d853 dcbf 40de fe8f e44b dcbf
000007f0: fcc3 c1db a79a c03f 4b09 590e ff60 d4bf
-0.5158617824376626 -0.09630566097295899 0.13917682852365773 0.13628999461877198 0.08678069003870491 0.2792565658975578 0.34744273095404765 -0.5161601123910305
-0.24012665536337288 0.24914486206407344 -0.24861214274664836 0.0030513671336333576 -0.13433636968566862 0.1865355747051775 0.10777133898537139 0.008405643217539133
0.05341463558406278 -0.02003605796486769 -0.018646692554694685 0.333680766019128 0.4040655492350834 0.47698339519015853 -0.36242602607220326 -0.3357325119822975
0.34782840676852345 0.2930931565735801 0.3434810050207261 -0.5667903179180284 -0.47330304556301706 0.2359151778545082 0.24084892081766832 0.31795862677134296
-0.5292886517474543 -0.30727912823342374 0.10382643819095212 0.2641857661397624 0.331234343716217 -0.37646003851924853 -0.4593290388751096 0.16803209955691534
-0.539162897027539 -0.24790278899203963 0.2507046817391561 0.24606525388407813 0.21335902323898343 -0.2965248612832711 -0.3859843407842026 0.16925756935980907
0.10101981139532108 0.013498349722285105 0.4110731406723928 0.15477376300017406 -0.11480558198521673 -0.077762919092493 -0.24361300220555485 0.07498885684701469
0.03976167618080508 0.008332300228659559 -0.3952776287772348 0.22881527930642304 -0.3466129451623166 -0.3418946787581203 0.2527547374870975 0.23966607905340467
0.13703209179365164 -0.070540424349457 -0.16184824934761063 0.04655482904735765 -0.007388473516817505 0.16498629752451952 0.05435412913269185 0.5521991409009731
-0.004327800444121661 -0.059487048348422375 -0.09327431361331882 -0.44944065048489606 0.12014806318456332 -0.30180560187140754 0.13347971563267125 0.41339410391121495
0.028045709515236085 -0.12754904521234547 0.18862378820661607 -0.039433007210073055 -0.1857050199928169 0.03864459118465441 -0.1861857746009224 0.40066815663865246
0.025598905302567126 -0.0904299084301887 -0.11115399716751671 0.4490357139854618 -0.19470448344296035 -0.12969657200916576 -0.24285560443414722 -0.16716399372533872
-0.17170750533745963 0.40560737076929543 0.10683483595735406 -0.2550493212864876 0.025926681918011132 0.08349451060423657 -0.28518749114453035 -0.13749498734552026
0.30642901270957523 -0.25917520106914993 -0.33936671295199267 0.2702668136694217 0.2572047668526375 0.0855819397821788 -0.25419428946896655 -0.24983941219176264
0.06678065242929979 0.24543355027557143 -0.17687930847689587 -0.18373500975526677 -0.5417063827074575 0.28110079915445957 0.2647838083200744 0.08404586836585676
0.4645589051182024 -0.15894254042398157 -0.04817956401319252 0.10732065003112555 -0.023869813134726702 -0.05211737208376525 0.42999882453550237 0.031034601125296445
-0.049702201404205434 -0.24082912827771638 0.002381462799024089 0.4233480077576581 0.09006097966536895 0.0655602441055938 -0.41775136302436 -0.36183451947399214
-0.6887476397348211 0.2589011875876853 0.26644927905547955 0.20443514938509827 0.22889022625633265 0.3062285126882085 -0.0032374214055829013 0.04317020302611099
-0.09666456186365956 0.3659412723770616 0.4174881791179663 -0.14147699232806343 -0.1903325741887973 -0.29089381000091213 -0.19945929033101956 -0.10442433345882866
-0.25844160254328286 0.19392365494875619 0.32196761910733984 0.17689906211413048 -0.4923499166096288 0.05448178962787525 -0.21531296236274658 -0.0914808841567161
-0.5084729768226487 0.14125572338470221 -0.1050397709869581 0.07648347946151504 0.1901528283996018 0.15612927169775187 0.24015557092413486 -0.7164488060980407
-0.21421943607009492 0.14330099422173223 -0.20420088921424645 -0.4548653581166673 0.193331889869392 0.23059979498768396 0.11046777500922744 -0.28095415029903786
-0.5393517990154254 0.3252424936002017 0.33558193390772983 0.23934371720513128 -0.41956431922364884 -0.24374930515388413 -0.14691712861962603 0.35492420528431146
0.32580265498259087 -0.4061258503675445 0.35559887892074415 -0.4907768384789566 -0.18838064932790685 0.10194871260241622 0.22740850457264983 -0.40129001443103485
-0.46161110769351427 0.21087460145165776 0.12051559629952975 -0.05659598724627085 0.012307906398772491 0.2992373144849745 -0.14191024905556807 -0.7105285875706712
-0.16292023193163302 -0.1848698816800262 0.06815772964662038 -0.0677595218520395 0.04444372295900162 0.11351533704977902 -0.3865741707847405 -0.3062519340571603
0.011629387939297969 0.1531155502596553 0.1688922177017421 -0.28345010407650184 -0.23123252829109173 0.4327927866775846 0.35516251939486904 0.2474403315447881
0.31879878797298244 -0.5282719406621098 -0.547206987050995 0.1979706074020183 0.10947808720928845 -0.48595214430770417 0.2517505580810928 0.15744490849021495
-0.1304905528736193 0.19004637142689448 0.2660910134933669 -0.7364611683618193 0.06078682478605664 0.2400429261039855 -0.687299980711808 -0.1313267354799161
0.20533629170119094 0.21654696184527455 0.1859274801102347 -0.5352535363614979 -0.4282535076297934 0.36013406240960283 0.3568682608003356 0.30771306125591896
0.04971584112245346 0.2672333277476294 -0.3237706817751586 -0.2606946265067029 0.0761230002832473 -0.39065310099709155 0.15249876480701452 -0.5510702146296023
0.13194763402677723 0.2570698284374935 0.26982914653632417 0.33039136198292474 -0.4426175452143197 -0.4421321302611183 0.1297197173148844 -0.3184201851000991
