Image feature/texture_feature/weights/normal_top/model_b_0.npy (npy, 1152 bytes, 1 tensors)

array f8 [1, 128]
0	0xbfc0f74aef657395	-0.1325467747618886
1	0xbf9342953620e037	-0.018808680943237923
2	0xbfb6053d09ed2a36	-0.0860174321398198
3	0xbfabc14790da27c9	-0.054208980972432715
4	0xbfb685ce6b269873	-0.08797922245011751
5	0x3fa9eea577ed29f8	0.05064885224290444
6	0x3fb31a8f289fc3cb	0.07462401143835888
7	0x3facf4e335442f3d	0.056555843593825796
8	0xbfa67dd9fc0b7d80	-0.043928920762250634
9	0xbfb492e168942e53	-0.0803662185973562
10	0xbfbf6ec5159bd3f8	-0.12278396394306401
11	0xbf9d1f4e10da1ce5	-0.028439731386723194
12	0x3f8d4528b9a24565	0.014292066731544659
13	0xbfa69bb68b462abe	-0.044156746388656284
14	0xbf97a8d87136d1a3	-0.023105031881372928
15	0x3fb32c8c5446cf6f	0.0748985009911942
16	0x3f995ec09b7e1069	0.02477551411676907
17	0xbfa679995a51ddcb	-0.04389647700821405
18	0xbfc6c68d80216ecc	-0.17793434864403535
19	0xbf9aa049933ca957	-0.02600207291758613
20	0x3fb9971a0fdbb405	0.09996188056148021
21	0xbf8fbf7c32b3c5c3	-0.015501947686490497
22	0xbf90b89a54d912ce	-0.01632920401449916
23	0xbfa3a6fa25871698	-0.03838330944158236
24	0xbfb8482e68c2a31e	-0.09485139901756809
25	0x3fa7c57a51c1acbc	0.04642851112370169
26	0x3f9c11598b0120c2	0.027409934147983213
27	0x3f87e455843a1c18	0.011665981385943922
28	0x3fa4ef42e791b6a9	0.040887919204448515
29	0xbfb9774fcfe62b3f	-0.09947680307065541
30	0xbfa8dd1c4a8055c5	-0.04856193932952694
31	0xbfacf44b13f61cfa	-0.05655130976361451
32	0xbf97dbc2083360c1	-0.02329924750378676
33	0x3fc3c092032f04ca	0.1543142810387848
34	0xbf92502f33b733a8	-0.01788400414607208
35	0xbfbb7804835a6673	-0.10730007368911192
36	0xbfab8d175c1642e5	-0.053810815802654045
37	0xbfafb150b7400797	-0.06189968335094347
38	0xbfa5464e71782e58	-0.04155202040791711
39	0x3fa9eea10ba2c636	0.05064872042693162
40	0xbfc840d636f63069	-0.18947866138148875
41	0x3fc0409e51334850	0.12697199787959557
42	0x3fa39038f9299315	0.03820970574887476
43	0xbf8ce90f24d854bb	-0.014116400062486148
44	0x3f6e28484a121d8f	0.0036813175107146055
45	0x3fb17ee36a81ff70	0.06834241247451955
46	0xbf9a2ce2c310165c	-0.025561850696269026
47	0x3f69617690b6f8e9	0.0030982318619115945
48	0xbfb192ffc989fd00	-0.06864927931200171
49	0xbf6717991bcb3c46	-0.0028188696290736585
50	0xbfc697c201937281	-0.17650628163291418
51	0xbf48c4f347c86ed2	-0.0007559001820171779
52	0xbf5783839a2e542a	-0.001435163991776687
53	0x3f7f3fa7ec4c6c0a	0.00762906641900952
54	0x3fa9c1b95d6586f2	0.0503061224469671
55	0x3fae622be4f92c24	0.05934273881992905
56	0x3f9573205fbf6982	0.020946985095954947
57	0x3f83b15eae9cc2ce	0.00961564989447208
58	0xbfa4831c7e1ab7bc	-0.040062799829100965
59	0xbfa0980af3652f40	-0.032409994326910496
60	0xbfbb2d4d47021fd6	-0.106160001598368
61	0xbface390074eab44	-0.05642366494369935
62	0xbf8743e1bed5603c	-0.011359943043018565
63	0x3fa31833534ed92a	0.03729401008551954
64	0xbfb2e68d4989eced	-0.07383044286136782
65	0x3fb4c3478b139581	0.08110472817823756
66	0x3fbb87cdb4a192e6	0.10754094753208285
67	0xbfb45650b427f737	-0.07944206617682147
68	0xbfb81ebd412c405d	-0.09421904412397582
69	0x3fb70e6f9b40cccb	0.09006402531013007
70	0xbfbd756b80063039	-0.11507293582525414
71	0xbfac63ff92abf525	-0.05545042672563686
72	0xbf9826407031d585	-0.023583418700999132
73	0xbfb60215385eb2b4	-0.08596928240030871
74	0xbf786c1608b7193e	-0.0059624539093817135
75	0xbfb2646213beb622	-0.07184422475867128
76	0xbfc100a96e34c74a	-0.13283269768867917
77	0xbfb2c8b0f262fb92	-0.07337480466502047
78	0x3fc759f34b69ded7	0.18243256742765965
79	0xbfc1a1c1b4574176	-0.13774892144875722
80	0xbfc16a422c3d7d96	-0.1360552516953077
81	0x3f640c26af2f22aa	0.0024472003510463596
82	0xbfa486b975daefd1	-0.0400903660169828
83	0x3fa440f10fb87366	0.03955796543980376
84	0xbfc295b6b80884f8	-0.14519390092849682
85	0x3f82424c17d483df	0.008915514447439264
86	0x3f981f716eff2b44	0.023557445907310695
87	0xbfa15c0f713423db	-0.033905489510352736
88	0x3fa9a500ca5246d6	0.05008699865096637
89	0x3f9b5a9a92d2c4b7	0.026712813578971786
90	0x3f8503fa64c357f6	0.01026149387363871
91	0xbfbaf7337c048051	-0.10533448961041471
92	0x3fa3f6fcbd0734c3	0.03899373824570198
93	0x3f913461cf2f5036	0.016801384230191917
94	0x3fb21bbe267f5d1a	0.07073582115059587
95	0x3fbda77c1619cea3	0.1158368638951353
96	0x3f8a4efb4453bb04	0.012845957777668733
97	0xbfb07afb5c0605ec	-0.06437655445736085
98	0x3f199e9d1b838d26	9.773095996794666e-05
99	0xbfaa0ca22913ae73	-0.050877635492580085
100	0x3f826c10b2802994	0.008995180556685502
101	0xbfaaab212c08a3b1	-0.05208686506768546
102	0xbf8aaeed9bc999c4	-0.013028961483723907
103	0x3fb7abbaba6c25aa	0.09246413279847468
104	0xbfba331527633e43	-0.10234195911038406
105	0x3f3c3b12e55717e0	0.00043076716732703794
106	0xbfbcfd04043c1b75	-0.1132357130373814
107	0xbfad3f6b8c0522fb	-0.057124482004445164
108	0x3fa9823d69ccdd36	0.04982177654749835
109	0x3fc2da17d4ca32be	0.14728067293289898
110	0x3fa5cf3283eabcca	0.04259641514124153
111	0x3f6aca38d6c79eb1	0.003270255101813856
112	0x3f891cdffa1317b8	0.012262105769320061
113	0xbfad1df9421e1e17	-0.0568693059167879
114	0xbfa2f81e5e32100d	-0.03704924487922776
115	0xbfb6268d9639a36e	-0.0865257732163067
116	0xbfcc838931dc13bd	-0.22276415762476445
117	0xbf963c39387d1b4f	-0.021714109490200525
118	0xbf6fb14142c16590	-0.0038687014221465213
119	0xbfa001fdba532f01	-0.03126519107317272
120	0x3f98c85710a2471f	0.024201736822369143
121	0xbfab4667274ea297	-0.053271506832350095
122	0x3fa678532ae799c7	0.0438867559312715
123	0x3f998195af4cc520	0.02490838892407965
124	0xbfb9de97e7cb189f	-0.10105275544182966
125	0xbfa41efa01c8358e	-0.03929883262399435
126	0x3fbb428538f6e421	0.10648377075894234
127	0x3f97574dc092e825	0.02279397476079494
